Model_distilation/Results/Model_distilation_RESULTS/best_spliceformerlite_distillation_weighted.pt (torch, 366833 bytes, 141 tensors)

SpliceAI.conv_layer_1.weight f4 [16, 4, 1]
0	0x3e83ca0e	0.25740093
1	0xbecbd8cf	-0.3981385
2	0xbebe2d17	-0.37143776
3	0xbe0767a3	-0.13223128
4	0x3d8e4875	0.06947414
5	0xbeacbc7a	-0.33737546
6	0xbea7ba8b	-0.32759508
7	0x3ea2a301	0.31764987
8	0xbf425985	-0.75917846
9	0x3f2f9837	0.68591636
10	0x3d02e816	0.031959616
11	0x3d0131e0	0.031541705
12	0xbf121804	-0.57067895
13	0x3e729e3f	0.23693179
14	0xbf1552d8	-0.58329535
15	0x3cee353e	0.029078122
16	0x3eae8ab5	0.340902
17	0x3ea29bf0	0.31759596
18	0x3f570ca1	0.84003645
19	0x3eb052d3	0.3443819
20	0x3e14e836	0.14541706
21	0xbee42344	-0.44558156
22	0xbf0b1611	-0.54330546
23	0xbf5edc40	-0.87054825
24	0x3ea97b25	0.33101764
25	0x3e92abfd	0.28646842
26	0x3e9df279	0.30849054
27	0x3f43dd07	0.76509136
28	0x3f8d65e3	1.1046718
29	0x3dd6e479	0.104927965
30	0xbe8ff122	-0.28113657
31	0x3f334eb5	0.7004197
32	0x3ed3f1f6	0.4139554
33	0x3ef63eb1	0.48094705
34	0x3e93e71d	0.28887263
35	0x3f2d2d6c	0.67647433
36	0x3ecbb0a2	0.39783198
37	0xbf6e9799	-0.9320007
38	0xbf14d293	-0.5813381
39	0xbf2d4276	-0.67679536
40	0x3c0d1b4b	0.008612464
41	0xbf579771	-0.84215456
42	0xbf5dc0fb	-0.8662259
43	0x3e866832	0.2625137
44	0x3e844477	0.25833485
45	0x3ed351a3	0.4127322
46	0x3e1ece27	0.15508328
47	0xbeadd64a	-0.33952552
48	0x3f0f4918	0.5597091
49	0x3e5d2c88	0.21599019
50	0x3efb62ab	0.49098715
51	0x3f10c818	0.5655532
52	0x3e861bb2	0.26193005
53	0x3e6c4e21	0.23076679
54	0x3e885b44	0.2663213
55	0x3f10b45c	0.56525207
56	0xbf54d27a	-0.8313366
57	0xbea587f7	-0.32330295
58	0x3e9a2dd1	0.3011308
59	0xbe49a58a	-0.19692054
60	0xbebb3baf	-0.36568972
61	0xbded4153	-0.11584725
62	0x3e96872b	0.294
63	0xbebe9467	-0.37222597

SpliceAI.conv_layer_1.bias f4 [16]
0	0xbeca16bc	-0.3947047
1	0x3ee5a2aa	0.44850665
2	0xbe774760	-0.24148321
3	0xbec247a7	-0.3794529
4	0x3eb48495	0.35257402
5	0xbefc10a5	-0.4923145
6	0x3e978139	0.29590777
7	0x3eafc1b0	0.3432746
8	0x3e9ab9e5	0.3021995
9	0xbe88fab9	-0.26753786
10	0xbea7679a	-0.3269623
11	0x3e911395	0.28335252
12	0x3ead596f	0.33857295
13	0x3ea455e6	0.32096785
14	0xbeafc4ed	-0.3432993
15	0xbe8c99d3	-0.2746111

SpliceAI.skip_layers.0.weight f4 [16, 16, 1]
0	0x3ba9e294	0.005184481
1	0xbedc7f21	-0.43065742
2	0xbd1e8339	-0.038699362
3	0x3e325111	0.17413737
4	0xbb8b0eee	-0.004243723
5	0x3dddfba6	0.10839014
6	0xbe20c18c	-0.15698832
7	0xbe29ebfb	-0.16593926
8	0x3d46ae15	0.04850586
9	0xbe1fdfe4	-0.15612751
10	0xbdc59a59	-0.0964858
11	0x3e870bad	0.26376095
12	0xbe6ccaf7	-0.231243
13	0xbe9a204d	-0.3010277
14	0x3e9f464b	0.31108317
15	0x3ddeacf7	0.10872834
16	0xbe4aad86	-0.19792756
17	0x3eabea29	0.33577088
18	0x3e585c2b	0.2112891
19	0xbdc608e1	-0.09669662
20	0xbcfd3662	-0.03090972
21	0xbafd11f5	-0.001930772
22	0x3e045d62	0.12926248
23	0x3d9a985e	0.07548593
24	0x3d95c79b	0.07313462
25	0x3d31e0e6	0.04342737
26	0xbdeff334	-0.11716309
27	0x3e6073a7	0.21919118
28	0xbc1ec362	-0.009690138
29	0x3e0ab35a	0.1354498
30	0xbe938a0b	-0.28816256
31	0xbdbb7a48	-0.09154183
32	0xbe7ebfd5	-0.24877866
33	0x3e05d3cb	0.13069074
34	0xba8c5615	-0.0010706807
35	0xbedd81e4	-0.4326316
36	0x3e120017	0.14257847
37	0xbe01ee08	-0.12688458
38	0x3e0fff18	0.14062154
39	0x3eb46398	0.35232234
40	0x3e91efe7	0.28503343
41	0xbe8201f6	-0.2539212
42	0xbe16854a	-0.14699283
43	0x3e862a8e	0.26204342
44	0x3ed02a53	0.4065729
45	0x3ea807fb	0.3281859
46	0xbe95d04e	-0.29260486
47	0xbe2247ab	-0.15847652
48	0x3ee4cd20	0.44687748
49	0xbee395fe	-0.44450372
50	0x3e6395a3	0.2222505
51	0x3f3254db	0.6966073
52	0xbeeadd16	-0.458718
53	0x3ef7e322	0.48415476
54	0xbeed603f	-0.46362492
55	0xbf15d285	-0.5852435
56	0xbef501ba	-0.4785288
57	0x3ecd5a8c	0.40108144
58	0x3efee659	0.49785116
59	0xbebc3bb1	-0.3676429
60	0xbf3564bd	-0.7085684
61	0xbedc5c31	-0.43039086
62	0x3f54e3d4	0.8316014
63	0x3ecf44e2	0.4048224
64	0x3e013421	0.12617542
65	0x3c527c75	0.012847056
66	0xbe38dfc4	-0.1805411
67	0x3ded9a52	0.116017
68	0x3cf9a6cc	0.030475043
69	0x3d74f39c	0.059802637
70	0xbd92f47e	-0.071755394
71	0xbe18a8e7	-0.14908181
72	0xbd88fcfd	-0.06688879
73	0xbccab560	-0.02474469
74	0x3cc32cf7	0.023825152
75	0xbd36b5da	-0.04460702
76	0xbddc2008	-0.10748297
77	0xbe222ddc	-0.15837806
78	0x3e12da2a	0.14341035
79	0x3e517149	0.20453371
80	0xbd04ba7b	-0.032404404
81	0xbd758429	-0.05994049
82	0x3c3251c0	0.0108837485
83	0xbd83caf0	-0.06435192
84	0xbd8f76e8	-0.070051014
85	0x3d184c3a	0.03718207
86	0xbd1bc03e	-0.038025133
87	0xbde596d2	-0.11210407
88	0xbe0bf174	-0.13666326
89	0x3d872836	0.065994665
90	0x3df9b2c9	0.12192304
91	0xbd85079d	-0.06495593
92	0xbd08a223	-0.03335775
93	0xbd4a9ea2	-0.04946769
94	0x3e236fa2	0.15960553
95	0xbd0a05c7	-0.033696916
96	0x3e3d0ad3	0.1846116
97	0x3e2bed11	0.16789652
98	0xbdd07cd4	-0.10180059
99	0xbde59406	-0.11209874
100	0xbce5d853	-0.028057253
101	0xbc6e43e6	-0.014542555
102	0xbd1254f9	-0.035725567
103	0xbdeb56fd	-0.11491201
104	0xbc786973	-0.01516186
105	0x3c986ca5	0.018606493
106	0x3cd48d6e	0.025946345
107	0xbef43aa4	-0.4770099
108	0x3d1e5749	0.03865746
109	0x3dea6169	0.11444361
110	0x3dae737d	0.085181214
111	0x3d059904	0.03261663
112	0x3e2e2147	0.17004882
113	0x3e8b9a8f	0.27266356
114	0xbd72e835	-0.05930348
115	0xbe809ff5	-0.25122038
116	0x3d375bd2	0.0447653
117	0x3d0fd87c	0.035118565
118	0xbd102dc1	-0.035199884
119	0xbe26a7bb	-0.16274922
120	0xbdfaa62a	-0.122387245
121	0x3c05c433	0.008164453
122	0xbca0a10a	-0.01960804
123	0xbda29b07	-0.07939725
124	0x3db31622	0.08744456
125	0x3e8cb3c9	0.27480915
126	0xbdede0f1	-0.1161517
127	0x3e174523	0.14772467
128	0x3e92cef4	0.28673518
129	0x3c22383c	0.009901103
130	0xba42eaca	-0.0007435499
131	0x3e4bc0ee	0.19897816
132	0xbe99a40c	-0.3000797
133	0x3e89280b	0.26788363
134	0xbe972e69	-0.29527596
135	0xbe3a1620	-0.18172503
136	0xbe7cf7d8	-0.2470392
137	0x3e8701b5	0.2636849
138	0x3ecb572b	0.3971494
139	0xbe852dd7	-0.26011536
140	0xbe9fed02	-0.3123551
141	0xbe8f86a3	-0.28032407
142	0x3e22eb12	0.15909985
143	0x3e4caede	0.19988582
144	0x3e1ef744	0.15524012
145	0x3d00af5a	0.03141723
146	0x3ddf8451	0.10913909
147	0x3c219fe8	0.009864785
148	0xbe4370ba	-0.1908597
149	0x3e3f8c68	0.18705904
150	0xbde72ce0	-0.11287856
151	0x3c54a5e5	0.012979005
152	0xbd9758a0	-0.07389951
153	0x3e0ec49f	0.13942192
154	0x3a0c37f9	0.0005348917
155	0x3e35a15a	0.17737332
156	0x3c09de76	0.008414855
157	0x3d937979	0.072009034
158	0xbdf12ea7	-0.11776476
159	0xbd99f0ba	-0.07516618
160	0x3ec087d2	0.37603623
161	0xbf04e6e9	-0.5191484
162	0x3ec02446	0.37527674
163	0x3f4800f1	0.78126436
164	0xbf36b364	-0.7136748
165	0x3f0fd216	0.5617994
166	0xbf1c4704	-0.6104586
167	0xbf35e2c8	-0.71049166
168	0xbf271055	-0.65259296
169	0x3f09d676	0.53842866
170	0x3f0ad756	0.54234827
171	0xbed28339	-0.4111574
172	0xbf233774	-0.6375649
173	0xbf1e54e5	-0.6184829
174	0x3f47b6be	0.7801322
175	0x3ef2cca8	0.47421765
176	0xbeaedd0e	-0.34153026
177	0x3d149beb	0.036281507
178	0x3e95b22c	0.29237497
179	0xbe5113ea	-0.20417753
180	0x3d908f83	0.07058623
181	0xbdb35c93	-0.087578915
182	0xbe0bb37a	-0.13642684
183	0xbe042628	-0.1290518
184	0xbdd1076a	-0.10206492
185	0xbc70815e	-0.014679281
186	0xbe39a8ef	-0.1813085
187	0xbc907b31	-0.017636867
188	0x3d24697f	0.04013967
189	0x3e35d2d5	0.17756207
190	0xbd8f7d87	-0.07006364
191	0x3de820dc	0.113343924
192	0xbe8ad954	-0.27118933
193	0x3e2dafa7	0.16961537
194	0x3dd2364c	0.102642626
195	0xbe9f4bbc	-0.31112468
196	0x3e8d2a10	0.27571154
197	0xbdad456e	-0.08460508
198	0x3e90f511	0.2831197
199	0x3ea6af4f	0.32555625
200	0x3e827f6e	0.25487846
201	0xbdf794ba	-0.12088914
202	0xbe7e7908	-0.24850857
203	0xbc5ffa15	-0.013670464
204	0x3ec18a66	0.37800902
205	0x3e5c7887	0.21530353
206	0xbedf98e2	-0.43671328
207	0xbe7c833d	-0.24659438
208	0xbd266b9f	-0.04062998
209	0xbddf2c8d	-0.10897169
210	0x3d5f7ba9	0.05456129
211	0x3e4d284b	0.20034902
212	0xbde31b95	-0.11089245
213	0x3d4b5208	0.049638778
214	0xbc528b40	-0.012850583
215	0xbe72be4d	-0.23705406
216	0xbe203951	-0.15646864
217	0xbd916ff4	-0.071014315
218	0x3d8f3635	0.06992761
219	0x3e66c5b7	0.2253636
220	0xbe36213e	-0.17786118
221	0xbe33f647	-0.17574416
222	0x3e816941	0.25275615
223	0xbd26df4e	-0.040740304
224	0xbf1d48c0	-0.6143913
225	0x3db456c3	0.08805611
226	0x3e792657	0.24331032
227	0xbe0b9679	-0.1363162
228	0x3e39cb6b	0.18144004
229	0xbe277cbb	-0.16356175
230	0x3e9a54e2	0.30142885
231	0x3e5e6bfa	0.21720877
232	0x3e511a43	0.20420174
233	0xbe5b07c4	-0.21389681
234	0xbe9ecff5	-0.31018034
235	0x3ecd1767	0.40056917
236	0x3e86b230	0.2630782
237	0x3e1fa26c	0.15589303
238	0xbec150d6	-0.37756985
239	0xbe73243b	-0.2374429
240	0xbccad0c4	-0.02475775
241	0xbb43fe45	-0.0029906195
242	0x3d73fbf5	0.059566457
243	0x3dc2201c	0.094787806
244	0x3dcb6479	0.09931273
245	0xbdfb9919	-0.122850604
246	0x3db772e1	0.08957458
247	0x3dc44d94	0.09585109
248	0x3e0fc0c7	0.14038382
249	0x3d08b3db	0.03337465
250	0xbe714ee1	-0.23565246
251	0x3e8d27ea	0.27569515
252	0x3c5eea3d	0.013605651
253	0xbe266d84	-0.16252714
254	0xbd1565bc	-0.036473975
255	0x3b722771	0.0036949778

SpliceAI.skip_layers.0.bias f4 [16]
0	0x3b8e08fc	0.004334567
1	0x3dbdf6c7	0.09275585
2	0x3e24c8cd	0.16092224
3	0xbed551ba	-0.41663915
4	0xbe3ec931	-0.18631436
5	0x3c80c6d8	0.015719816
6	0x3d4868c0	0.048928022
7	0x3da4093d	0.080095746
8	0xbe62f39e	-0.22163245
9	0xbd1e1a04	-0.03859903
10	0xbefb512f	-0.49085376
11	0x3d649b18	0.05581197
12	0x3e2c078b	0.16799752
13	0x3de38e50	0.11111128
14	0x3e9403b3	0.28909072
15	0x3e13f2b6	0.14448056

SpliceAI.skip_layers.1.weight f4 [16, 16, 1]
0	0x3da57395	0.08078686
1	0xbc430664	-0.011903379
2	0xbcc6d90a	-0.024273414
3	0xbd55bef9	-0.05218408
4	0xbe0aeb37	-0.1356629
5	0xbcad7c14	-0.02117733
6	0x3de70aa0	0.112813234
7	0xbe8147ec	-0.25250185
8	0xbe275a63	-0.16343074
9	0xbd4f63f1	-0.05063242
10	0x3d89b120	0.06723237
11	0xbe92907e	-0.28625864
12	0xbd3036f0	-0.043021142
13	0xbe0ad5fb	-0.1355819
14	0x3e14fb38	0.14548957
15	0xbe95959a	-0.292157
16	0x3dd1d407	0.10245519
17	0x3d07725d	0.03306805
18	0xbd402ad1	-0.046915833
19	0x3e114d81	0.14189722
20	0xbdc85ad0	-0.09782946
21	0x3d8f3ec5	0.06994394
22	0xbd3ac57f	-0.045598503
23	0xbdab01ba	-0.08349939
24	0xbe0e8b1b	-0.13920252
25	0xbb31efb6	-0.0027150935
26	0xbd4c3978	-0.049859494
27	0xbda20d46	-0.07912688
28	0x3e19c419	0.15016212
29	0x3dcedfdd	0.10101292
30	0x3d55eb4c	0.05222635
31	0x3e26775c	0.1625647
32	0xbce1533f	-0.027505515
33	0xbe392423	-0.18080191
34	0xbd570e40	-0.052503824
35	0x3e013d3f	0.1262102
36	0x3d5662ca	0.052340306
37	0xbdf86cd7	-0.121301346
38	0x3d39a3f9	0.045322392
39	0x3e185412	0.1487582
40	0x3a03db4c	0.0005029931
41	0x3daf275f	0.08552431
42	0xbdf11403	-0.11771395
43	0x3da1d7f8	0.07902521
44	0xbda2a694	-0.079419285
45	0x3db98fd1	0.09060634
46	0x3d03e288	0.03219846
47	0x3c13ed1b	0.009028698
48	0xbd42a85f	-0.047523852
49	0x3dbe26db	0.09284755
50	0x3daca6f7	0.084302835
51	0xbd8b65dc	-0.068065375
52	0xbcb97f8a	-0.022643823
53	0xbd749813	-0.05971534
54	0xbd7c6af2	-0.06162543
55	0x3d511942	0.05104948
56	0xbcb67e34	-0.022276975
57	0x3d97f231	0.07419241
58	0x3d35e9f5	0.044412572
59	0x3d03c0da	0.03216634
60	0xbd1c33f9	-0.038135502
61	0xbc3daad5	-0.011576374
62	0x3e1abbcd	0.15110703
63	0x3daa23c6	0.083076045
64	0xbe2b4ba1	-0.16728069
65	0xbf04659a	-0.5171753
66	0xbdc3b8f1	-0.09556759
67	0x3e9fd8be	0.3122005
68	0xbc557d71	-0.013030396
69	0x3d85f137	0.06540149
70	0x3e9fc592	0.31205422
71	0x3e262bff	0.1622772
72	0xbdfc46c3	-0.12318184
73	0x3d032b8b	0.032023948
74	0x3e4d2433	0.2003334
75	0x3e805795	0.2506682
76	0x3d870fe8	0.06594831
77	0xbcf21eb5	-0.029555658
78	0xbf1cda25	-0.6127036
79	0x3c54e633	0.012994337
80	0x3bee32f7	0.007269259
81	0x3d4f5837	0.050621238
82	0x3dd50980	0.104022026
83	0x3e168a59	0.14701213
84	0xbbfdacbb	-0.0077415383
85	0x3d9618be	0.07328938
86	0xbded99ba	-0.11601587
87	0xbdd62c38	-0.10457653
88	0x3da815df	0.082072966
89	0x3d33320a	0.043748893
90	0xbb068390	-0.0020525195
91	0x3ea7f59d	0.32804576
92	0xbe3fa349	-0.18714632
93	0x3dd907ba	0.10597177
94	0x3c8dc5c4	0.017306216
95	0x3dbd4a35	0.092426695
96	0x3c1f04cb	0.009705733
97	0x3dcb5ea4	0.09930161
98	0x3c63917e	0.0138896685
99	0x3e011d89	0.12608923
100	0xbd1c568f	-0.038168486
101	0x3d5a0f95	0.053237516
102	0xbddeedb5	-0.10885183
103	0xbca470e6	-0.020073365
104	0xbcd2b975	-0.025723198
105	0xbdb68e5d	-0.089138724
106	0x3dafebd2	0.08589901
107	0x3e62ff08	0.22167599
108	0xbcba4e75	-0.02274249
109	0xbcec2141	-0.02882445
110	0x3e0cc2cd	0.13746186
111	0x3e6553da	0.22395268
112	0x3ccc79f5	0.024960497
113	0x3df95da6	0.12176065
114	0xbd378980	-0.044808865
115	0x3a9363bb	0.0011244932
116	0x3bd1db09	0.006404285
117	0xbc033ec1	-0.008010567
118	0xbd13ac1e	-0.036052816
119	0x3cf91e85	0.03041006
120	0x3d635b02	0.055506714
121	0xbd61454d	-0.05499773
122	0x3dbcf6aa	0.09226735
123	0xbe5132c6	-0.20429525
124	0x3ddc0f4b	0.107451044
125	0xbd895e97	-0.06707495
126	0x3e2180db	0.1577181
127	0x3b3256b2	0.002721232
128	0x3cf27aaf	0.029599516
129	0xbd8b929c	-0.06815073
130	0x3d42069f	0.047369596
131	0x3d94fc74	0.07274714
132	0x3daaf6df	0.08347868
133	0x3dd46923	0.10371616
134	0x3da44895	0.080216564
135	0xbcb1483d	-0.021640891
136	0x3c3425e4	0.010995362
137	0x3d878254	0.06616655
138	0x3e02fd24	0.12791878
139	0xbd38c415	-0.045108873
140	0x3e20fb0d	0.15720768
141	0xbd337572	-0.043813176
142	0xbe92398c	-0.2855953
143	0xbdb2039f	-0.08692097
144	0xbd2d2a3c	-0.042276606
145	0xbd14d9eb	-0.036340635
146	0x3de8ef90	0.11373818
147	0x3d401a9a	0.04690037
148	0x3d6e1ab5	0.05813094
149	0xbc4fe6d8	-0.012689315
150	0xbd817f36	-0.06323092
151	0x3ccae7cd	0.024768734
152	0x3bd073a3	0.006361441
153	0xbbecd290	-0.0072272494
154	0x3e036654	0.12832004
155	0xbd3bf911	-0.045891825
156	0x3ca28457	0.019838495
157	0x3d36740c	0.044544265
158	0xbdbd9362	-0.09256627
159	0xbce0e5b8	-0.027453288
160	0xbe667220	-0.22504473
161	0x3d693cf9	0.056942914
162	0x3e3ddcf2	0.18541315
163	0x3cd4de00	0.025984764
164	0x3d484124	0.048890248
165	0xbd8ac26f	-0.067753665
166	0xbcdbccdc	-0.026831083
167	0xbc9c2be2	-0.019063894
168	0x3cf96e9f	0.030448256
169	0x3e333dfe	0.17504117
170	0xbd1edd8e	-0.03878551
171	0x3c58e5d4	0.013238389
172	0xbdc5edc5	-0.096644916
173	0x3db504d0	0.088388085
174	0xbd134d39	-0.035962317
175	0xbd116602	-0.035497673
176	0x3d55b7a6	0.052177094
177	0x3e87854e	0.2646889
178	0x3e162aba	0.14664736
179	0xbb738524	-0.0037158215
180	0xbdff0761	-0.12452579
181	0xbd99b15c	-0.07504532
182	0xbe8842d3	-0.26613483
183	0x3cd861b0	0.026413769
184	0x3d9de0eb	0.07708915
185	0x3e47404b	0.1945812
186	0x3c443713	0.011976021
187	0x3d0177ef	0.03160852
188	0xbd5b79fb	-0.053583127
189	0xbcb26581	-0.021776916
190	0x3dabf3f8	0.08396143
191	0x3df00728	0.11720115
192	0x3c9b0d6b	0.018927297
193	0x3e106c98	0.14103925
194	0x3cf39b02	0.029737
195	0xbe6c91f2	-0.23102549
196	0xbe6ab4f3	-0.22920589
197	0xbe479970	-0.19492126
198	0xbd05b4e4	-0.032643214
199	0xbdd4b349	-0.103857584
200	0xbd0c9ed7	-0.03433117
201	0x3c930ac0	0.017949462
202	0xbda89d6f	-0.08233153
203	0xbdd961fb	-0.106143914
204	0xbe5f1c31	-0.21788098
205	0x3d9f6ebd	0.077847935
206	0x3e62132d	0.22077627
207	0xbd9a139d	-0.07523272
208	0x3e67e64d	0.22646447
209	0x3e76f0c9	0.2411529
210	0x3d54e78f	0.051978644
211	0xbe30ff52	-0.17284897
212	0xbb9fb659	-0.0048740325
213	0xbd4a31b1	-0.049363796
214	0xbe34e79c	-0.17666477
215	0xbe1bbff2	-0.1520994
216	0x3e57bb44	0.2106753
217	0xbdef1edf	-0.1167581
218	0xbd640267	-0.055666354
219	0xbeb2dc42	-0.34933668
220	0x3d2914f5	0.04127975
221	0xbc09f3d3	-0.008419949
222	0x3ed4adf7	0.41538975
223	0x3d26b523	0.04070009
224	0x3e9da3bb	0.3078898
225	0x3ece6c95	0.40317217
226	0x3dc560e8	0.09637624
227	0xbecd7b21	-0.40133002
228	0xbe00cdb4	-0.1257847
229	0xbe263dd3	-0.16234522
230	0xbe02be6c	-0.12767953
231	0xbe0cea95	-0.13761361
232	0x3ee848de	0.45368093
233	0xbdefae75	-0.11703197
234	0x3b0cfe27	0.0021513791
235	0xbee2497d	-0.44196692
236	0x3e12338d	0.14277478
237	0x3dfc42fb	0.12317463
238	0x3f304bd0	0.6886568
239	0xbe3e79b2	-0.1860111
240	0x3cf20384	0.029542692
241	0xbc8ccbf6	-0.0171871
242	0x3de6cb2f	0.11269223
243	0x3d570919	0.05249891
244	0xbd70ab71	-0.05875725
245	0xbd33ccf1	-0.04389662
246	0xbcaf9d6b	-0.021437367
247	0xbbb90181	-0.005645931
248	0x3c9a03a2	0.01880056
249	0x3d80e93e	0.062944874
250	0x3d2f9d63	0.042874705
251	0x3d883f6e	0.06652723
252	0xbd3a35b3	-0.045461368
253	0x3dbb45b1	0.09144152
254	0x3c7f3504	0.015576605
255	0xbc8ec354	-0.017427124

SpliceAI.skip_layers.1.bias f4 [16]
0	0x3b8e08fc	0.004334567
1	0x3dbdf6c7	0.09275585
2	0x3e24c8cd	0.16092224
3	0xbed551ba	-0.41663915
4	0xbe3ec931	-0.18631436
5	0x3c80c6d8	0.015719816
6	0x3d4868c0	0.048928022
7	0x3da4093d	0.080095746
8	0xbe62f39e	-0.22163245
9	0xbd1e1a04	-0.03859903
10	0xbefb512f	-0.49085376
11	0x3d649b18	0.05581197
12	0x3e2c078b	0.16799752
13	0x3de38e50	0.11111128
14	0x3e9403b3	0.28909072
15	0x3e13f2b6	0.14448056

SpliceAI.skip_layers.2.weight f4 [16, 16, 1]
0	0x3d10e20d	0.03537183
1	0xbd5326f3	-0.051550817
2	0x3c2f814f	0.010711982
3	0xbb447755	-0.0029978354
4	0x3da09f76	0.07842915
5	0xbe226008	-0.15856946
6	0xbd89eaec	-0.06734261
7	0x3d35161b	0.044210535
8	0x3d594811	0.053047244
9	0xbd3e54a3	-0.046467435
10	0xbc44e97d	-0.012018559
11	0x3ddb4e3e	0.10708283
12	0x3dcdd5ca	0.10050543
13	0xbc24384d	-0.010023189
14	0xbe0c5554	-0.13704425
15	0x3b8e26a0	0.0043381006
16	0x3d908353	0.07056298
17	0x3d89528a	0.06705196
18	0x3dd6e2b0	0.10492456
19	0xbd10ff6a	-0.03539983
20	0xbd499cb0	-0.049221694
21	0x3df6b969	0.12047083
22	0xbd546593	-0.05185468
23	0x3d406876	0.04697462
24	0x3dcee095	0.101014294
25	0xbdbcde35	-0.0922207
26	0xbcaf7745	-0.021419177
27	0x3d3ed12a	0.046586193
28	0xbd0e7fdf	-0.034789916
29	0xbdd3bc86	-0.10338692
30	0xbd0f43db	-0.03497682
31	0x3df11e0d	0.1177331
32	0xbd87a39f	-0.06623005
33	0xba3a2275	-0.00071004714
34	0x3d04ada6	0.032392167
35	0xbdc8f6d1	-0.098127015
36	0xbc90e819	-0.017688798
37	0x3d96b5f7	0.07358926
38	0xbc410b1b	-0.011782433
39	0xbd2761b1	-0.04086465
40	0x3da5b12e	0.08090435
41	0x3d0aeb8a	0.033916034
42	0x3cfd22a2	0.030900303
43	0xbda0db2c	-0.07854304
44	0x3dc2e9ce	0.09517251
45	0xbdb38555	-0.087656654
46	0xbd53078a	-0.05152086
47	0xbe1f2380	-0.15540886
48	0x3d7fb09a	0.06242428
49	0x3df9a603	0.12189867
50	0x3e241907	0.16025172
51	0x3c07ca08	0.008287914
52	0xbb38621c	-0.002813465
53	0xbca1dfdd	-0.019760067
54	0x3c86540b	0.016397497
55	0x3d98675f	0.074415915
56	0x3d6d17f2	0.057884164
57	0x3de3f630	0.11130941
58	0xbd8b1b7d	-0.06792352
59	0xbe004be5	-0.12528951
60	0x3ddb290e	0.1070119
61	0xbd85db47	-0.065359645
62	0x3d7347c9	0.05939463
63	0xbe134e3b	-0.14385311
64	0xbc2b4168	-0.010452606
65	0xbecb8209	-0.39747646
66	0x3cd33015	0.025779763
67	0xbb2856cf	-0.0025686508
68	0xbca42049	-0.020034926
69	0x3d3b8d16	0.045788847
70	0x3d60fd53	0.05492909
71	0x3bdff9ab	0.0068351827
72	0xbe6ed037	-0.23321615
73	0x3d42aeb4	0.04752989
74	0xbde19a1f	-0.110157244
75	0xbd06f98f	-0.03295284
76	0xbd1d9c73	-0.03847928
77	0x3e2a7359	0.16645564
78	0xbdee8d59	-0.11648054
79	0x3d9672ba	0.07346101
80	0x3d5156d4	0.051108196
81	0x3c87a2c6	0.016557109
82	0xbdcdc0a5	-0.1004651
83	0xbd0707d7	-0.03296646
84	0x3ac34a0e	0.0014899389
85	0x3c8c9ada	0.017163683
86	0xbd03d243	-0.032182943
87	0xbd69ce3f	-0.057081457
88	0xbd0713c8	-0.03297785
89	0xbcf241c1	-0.02957237
90	0xbd9efcc0	-0.07763052
91	0xbde53e07	-0.111934714
92	0x3c3134c0	0.010815799
93	0xbe3d8e6f	-0.18511365
94	0xbcc44808	-0.023960128
95	0xbcbd4618	-0.023104712
96	0x3d40ccdb	0.047070365
97	0x3d78e8f1	0.060769025
98	0xbcf131ec	-0.02944275
99	0xbd05dfa2	-0.032683976
100	0xbd4477c9	-0.0479658
101	0xbc8ade7b	-0.01695179
102	0x3c08c182	0.008346917
103	0x3d2e28ff	0.042519566
104	0x3db5ddba	0.088801816
105	0x3de435a5	0.111430444
106	0xbdcc5f01	-0.09979058
107	0x3e0ab2bf	0.13544749
108	0x3d4663d0	0.048435032
109	0xbc946e63	-0.018119043
110	0xbd8c48da	-0.06849833
111	0xbdaa6344	-0.08319715
112	0xbd03eaac	-0.032206222
113	0xbcb8ce74	-0.022559382
114	0x3d4572bf	0.048205134
115	0xbd1ff879	-0.03905532
116	0xbcd471e4	-0.025933214
117	0x3d61f881	0.055168632
118	0x3bcddb96	0.00628228
119	0xbd54f0cf	-0.051987465
120	0xbca1d7b5	-0.019756177
121	0x3babd221	0.005243555
122	0x3d8ffb98	0.070304096
123	0x3e0ed55a	0.13948575
124	0xbd3fa351	-0.04678661
125	0x3d119cdc	0.035549983
126	0xba10e069	-0.0005526604
127	0xbbef602e	-0.0073051667
128	0xbe112d88	-0.14177525
129	0xbd4df830	-0.05028552
130	0xbd21c79d	-0.039497007
131	0x3b5b86ba	0.0033497051
132	0xbcf65a49	-0.030072348
133	0x3ca4fdd9	0.020140575
134	0xbc84b7cd	-0.016200924
135	0xbd61763d	-0.0550444
136	0xbd14863d	-0.036260832
137	0xbd6a6eb8	-0.057234496
138	0x3d5abc85	0.053402442
139	0xbdfdc359	-0.12390775
140	0xbd2ddad7	-0.04244503
141	0x3d6d18af	0.05788487
142	0x3e8497a3	0.2589694
143	0x3d079f3c	0.033110842
144	0x3df83b82	0.12120725
145	0x3de9fcd9	0.1142518
146	0xbd0daa77	-0.034586396
147	0x3c96e802	0.018421177
148	0xbc223e56	-0.009902557
149	0x3d4565ac	0.048192665
150	0x3cda0aea	0.026616532
151	0xbbf34368	-0.007423807
152	0x3ba4f6ba	0.005034295
153	0x38897dd1	6.556104e-05
154	0x3d638134	0.05554314
155	0x3d8cf347	0.06882339
156	0xbd01653f	-0.031590696
157	0x3c2c5a32	0.010519551
158	0x3c810f8f	0.01575449
159	0x3cf3678d	0.029712463
160	0xbd904b9c	-0.07045671
161	0xbda89909	-0.08232314
162	0x3e62ad49	0.22136416
163	0xbaf72a77	-0.001885726
164	0xbba5ce23	-0.005059974
165	0x3bd298d0	0.006426908
166	0xbcc22973	-0.023701405
167	0xbd662e4a	-0.05619649
168	0xbd94470e	-0.07240115
169	0x3db8dadc	0.09026119
170	0x3d3c0deb	0.04591171
171	0x3da02de7	0.07821255
172	0xbd989519	-0.07450313
173	0xbd403747	-0.046927717
174	0xbd15fe3f	-0.03661942
175	0x3dc2ccd5	0.09511725
176	0x3daa38f7	0.083116464
177	0xbe223ba3	-0.15843062
178	0xbd854281	-0.06506825
179	0xbcd289a6	-0.025700402
180	0xbe0b8852	-0.13626221
181	0xbdb2633e	-0.08710335
182	0x3e058710	0.13039804
183	0xbd9545f0	-0.0728873
184	0xbcbb85ab	-0.022890886
185	0xbd5fd411	-0.0546456
186	0xbe355071	-0.17706467
187	0x3d9e8fb5	0.07742254
188	0xbe1137c7	-0.14181434
189	0x3c59671e	0.013269214
190	0x3dd19ebc	0.10235354
191	0xbe101351	-0.14069869
192	0xbd2263bf	-0.039645907
193	0xbca4d235	-0.020119766
194	0x3acff955	0.0015867153
195	0x3e12f8ad	0.14352675
196	0x3e321617	0.17391239
197	0x3d90d914	0.07072654
198	0xbdf7745b	-0.1208274
199	0x3ca665ee	0.020312276
200	0x3d888098	0.06665152
201	0xbd0abaa1	-0.03386939
202	0x3e65e399	0.22450103
203	0xbd80a768	-0.0628193
204	0xbd60f066	-0.05491676
205	0xbdf00d43	-0.117212795
206	0xbd41ae7e	-0.04728555
207	0x3db0388d	0.08604536
208	0x3dd4f16d	0.10397611
209	0x3dd74bac	0.1051248
210	0x3d19639d	0.037448514
211	0xbd3dabd2	-0.04630644
212	0xbd694082	-0.056946285
213	0x3e197311	0.149853
214	0xbe0912f4	-0.13386136
215	0xbda57fcc	-0.08081016
216	0x3d7e04de	0.06201636
217	0xbd3ca26f	-0.046053346
218	0xbd9b8a84	-0.07594779
219	0x3db84553	0.089975975
220	0xbdcfcdf1	-0.10146702
221	0x3d66db9e	0.056361787
222	0xbdc93974	-0.098254114
223	0xbd519b54	-0.051173523
224	0x3dd5ed50	0.104456544
225	0x3e5b36f4	0.21407682
226	0x3df226ce	0.11823808
227	0x3cee2f22	0.029075209
228	0x3caef996	0.021359246
229	0x3abc7d1e	0.001438055
230	0xbe88c745	-0.2671453
231	0x3ceaf3ea	0.02868076
232	0xbe0eeecf	-0.13958286
233	0xbdb99901	-0.09062386
234	0xbd4e80fb	-0.050415974
235	0xbcd7f6d8	-0.026362821
236	0xbdfc437e	-0.123175606
237	0xbdba8c49	-0.091087885
238	0x39d0b141	0.00039804916
239	0x3dce29d5	0.100665726
240	0x3cd5b2d8	0.026086256
241	0xbb1eec3b	-0.002424969
242	0xbc80b58c	-0.015711568
243	0xbccd88e4	-0.025089689
244	0xbcb8d301	-0.022561552
245	0x3bdc08d7	0.006714921
246	0xbd36241e	-0.044468038
247	0xbc9b9b67	-0.018995
248	0xbc90af76	-0.017661791
249	0xbd0cce96	-0.034376703
250	0xbd9fe0b1	-0.07806528
251	0xbdfca5bf	-0.12336301
252	0xbd6f8aba	-0.05848191
253	0xbd7e0df9	-0.062025044
254	0x3b737ae2	0.0037152101
255	0xbb9af0cb	-0.004728412

SpliceAI.skip_layers.2.bias f4 [16]
0	0x3b8e08fc	0.004334567
1	0x3dbdf6c7	0.09275585
2	0x3e24c8cd	0.16092224
3	0xbed551ba	-0.41663915
4	0xbe3ec931	-0.18631436
5	0x3c80c6d8	0.015719816
6	0x3d4868c0	0.048928022
7	0x3da4093d	0.080095746
8	0xbe62f39e	-0.22163245
9	0xbd1e1a04	-0.03859903
10	0xbefb512f	-0.49085376
11	0x3d649b18	0.05581197
12	0x3e2c078b	0.16799752
13	0x3de38e50	0.11111128
14	0x3e9403b3	0.28909072
15	0x3e13f2b6	0.14448056

SpliceAI.res_layers.0.comboBlock.0.convlayer1.weight f4 [16, 16, 11]
0	0x3e5ed2fe	0.21760175
1	0x3c4ebcaa	0.012618223
2	0x3be1f7c3	0.0068959906
3	0xbe296ea7	-0.16546117
4	0xbd529df2	-0.05142016
5	0xbdbb32be	-0.09140538
6	0xbdd15cec	-0.102228016
7	0xbc2612f9	-0.010136359
8	0xbc776b72	-0.015101301
9	0xbc1fcde4	-0.009753678
10	0xbbf05ebe	-0.007335513
11	0xbfa4f88a	-1.2888348
12	0xbeca4977	-0.39509174
13	0xbe5d603a	-0.21618739
14	0xbee80b46	-0.453211
15	0xbe14f081	-0.1454487
16	0xbdb1d886	-0.08683877
17	0xbe29e41c	-0.16590923
18	0xbe17e078	-0.14831722
19	0xbe1ceefc	-0.1532554
20	0xbe52dc2a	-0.20591798
21	0xbdc7fd3b	-0.09765097
22	0x3c2a1844	0.010381762
23	0xbe70095f	-0.23441075
24	0xbf0ff9a0	-0.5624027
25	0xbe07de58	-0.13268411
26	0xbe9da9ae	-0.30793518
27	0xbdd46450	-0.103706956
28	0xbe408c6c	-0.18803567
29	0xbe20a96d	-0.15689631
30	0xbe07a268	-0.13245547
31	0xbe3d440e	-0.18482992
32	0xbe078021	-0.13232471
33	0x3e83e26b	0.2575868
34	0x3eae9200	0.34095764
35	0x3c255883	0.010091904
36	0x3e8b675d	0.27227297
37	0x3d1e1cb7	0.038601603
38	0x3de698fe	0.1125965
39	0x3cf0a45b	0.029375246
40	0x3db45634	0.088055044
41	0x3d8e0995	0.069354214
42	0x3b999210	0.0046866015
43	0x3d225bcd	0.03963833
44	0x3d3cae22	0.046064503
45	0xbe801d18	-0.25022197
46	0xbe3332c8	-0.1749984
47	0xbe9749d8	-0.29548526
48	0xbe5d3abf	-0.21604441
49	0xbeb93f03	-0.36180887
50	0xbe6d045d	-0.23146196
51	0xbe71e756	-0.23623404
52	0xbe4d8d17	-0.20073353
53	0xbe386dcb	-0.18010633
54	0xbe210017	-0.1572269
55	0x3ed767cc	0.42071378
56	0x3d818785	0.063246764
57	0x3d1ee313	0.038790774
58	0xbd64e5b1	-0.055883113
59	0x3d01f6de	0.03172957
60	0x3cdfe42a	0.027330477
61	0x3d5b3323	0.053515565
62	0x3bd5f8a9	0.0065298867
63	0x3c8afe4b	0.01696696
64	0x3c60bec8	0.013717361
65	0x3c9fbc7f	0.019499062
66	0xbf8e8a79	-1.1136009
67	0xbe2b00a6	-0.16699466
68	0xbccfecc0	-0.025381446
69	0xbdf84a37	-0.1212353
70	0x3ce9991f	0.028515397
71	0x3de9d4a8	0.11417514
72	0x3d06d58b	0.032918494
73	0x3a55fb4d	0.0008162752
74	0x3cc160ff	0.023605822
75	0x3ce9c090	0.028534204
76	0x3d62c4d2	0.055363484
77	0xbea21a1e	-0.3166055
78	0xbda009a4	-0.07814339
79	0xbd6b3cb9	-0.057430957
80	0xbe574585	-0.21022613
81	0xbb97daff	-0.0046342607
82	0x3da64055	0.08117739
83	0x3d2fec22	0.042949803
84	0x3e367f3a	0.1782197
85	0x3d9b22fe	0.075750336
86	0x3d35ec19	0.044414613
87	0x3e583dc9	0.21117319
88	0xbf5db4de	-0.86604106
89	0x3de07859	0.109604545
90	0x3dbad138	0.091219366
91	0x3e6a2b8a	0.22868171
92	0x3e2fdb2a	0.17173448
93	0x3e660905	0.22464378
94	0x3e58d8fc	0.21176523
95	0x3e0dbe80	0.13842201
96	0x3e31c374	0.17359716
97	0x3e2f9802	0.1714783
98	0x3e2e2ef6	0.17010102
99	0x3eb8705b	0.3602322
100	0x3d072bea	0.033000864
101	0x3ccef0d7	0.025261326
102	0xbdb24abe	-0.08705662
103	0xbcce64f0	-0.025194615
104	0xbd812c02	-0.06307222
105	0xbcfbbac0	-0.030728698
106	0xbbe18199	-0.0068819043
107	0xbc1f5c66	-0.009726619
108	0xbcf884a6	-0.03033669
109	0xbcdce511	-0.026964696
110	0xbf204edb	-0.62620324
111	0xbdbdcb0e	-0.09267245
112	0x3c7e8702	0.015535118
113	0xbe39221e	-0.18079421
114	0xbc80b59d	-0.0157116
115	0xbd3a2f1e	-0.04545509
116	0xbe224756	-0.15847525
117	0xbde79640	-0.11307955
118	0xbe2d6a85	-0.16935165
119	0xbe7fbcb3	-0.24974327
120	0xbe819419	-0.25308302
121	0x3dcb53a1	0.0992806
122	0xbc39d67f	-0.011342644
123	0xbebed5b2	-0.37272412
124	0xbcc3b28a	-0.023888845
125	0xbdfe2ae0	-0.124105215
126	0xbc0f8b1e	-0.0087611955
127	0xbd852b42	-0.065023914
128	0x3ce7212a	0.028214056
129	0xbc383aeb	-0.011244516
130	0xbccb95b7	-0.024851663
131	0xbc23b2a2	-0.00999132
132	0xbeee5574	-0.4654957
133	0xbe3eb47f	-0.18623541
134	0xbe07a9d7	-0.13248383
135	0xbe0f0301	-0.1396599
136	0xbe578b88	-0.2104932
137	0xbd58698b	-0.05283503
138	0x3dd01107	0.10159498
139	0x3e2a4acb	0.16630094
140	0x3d424476	0.04742857
141	0x3e00466f	0.12526868
142	0x3e382723	0.1798368
143	0xbf8930d9	-1.0718032
144	0xbe364667	-0.17800294
145	0xbd9bae72	-0.07601632
146	0xbde28523	-0.1106055
147	0x3c5746c2	0.013139429
148	0x3de26ab9	0.11055512
149	0xbaa3c07a	-0.0012493276
150	0x3c759339	0.014988714
151	0x3d42cf20	0.04756081
152	0x3b0f3c6a	0.0021856078
153	0x3cd2e7d0	0.025745302
154	0x3ed84a3a	0.4224413
155	0x3e803abe	0.25044817
156	0x3e1c2b08	0.1525079
157	0x3d1f6f53	0.038924526
158	0x3e161c02	0.14659122
159	0x3d58221c	0.052766904
160	0x3cfb3a98	0.030667588
161	0x3d55f176	0.05223223
162	0x3e005f5b	0.12536375
163	0x3d7e1c99	0.06203899
164	0x3d9d0c9c	0.07668421
165	0x3ed4dfcb	0.4157699
166	0x3eaf1e73	0.34202918
167	0x3dfed6a9	0.12443287
168	0x3de675b4	0.11252919
169	0x3e933b7b	0.28756317
170	0x3e19a890	0.15005708
171	0x3e237c13	0.159653
172	0x3e3d2557	0.18471275
173	0x3e779740	0.24178791
174	0x3e239042	0.15972999
175	0x3e7194d9	0.23591937
176	0x3dcc9f94	0.099913746
177	0x3c37d579	0.011220329
178	0x3d438cad	0.04774158
179	0xbdf7ecc1	-0.12105704
180	0x3fa7eb4f	1.3118685
181	0xbfcc3cf8	-1.5956106
182	0xbd3ec011	-0.046569888
183	0x3d2f3609	0.04277614
184	0x3de5c794	0.11219707
185	0x3b1e59fe	0.0024162526
186	0xbd7ab895	-0.061211187
187	0x3d8255c1	0.063640125
188	0x3cbec115	0.023285428
189	0x3e353b30	0.1769836
190	0xbe028d1c	-0.12749141
191	0x3e2d93bc	0.16950887
192	0xbe58b096	-0.21161112
193	0x3e0cbc5a	0.13743725
194	0x3dd52b8d	0.10408697
195	0x3e0215c3	0.12703614
196	0x3db6abca	0.08919485
197	0x3dbe82f5	0.09302322
198	0xbd3352a4	-0.043779984
199	0x3d182e9a	0.037153818
200	0xbe6907e0	-0.2275691
201	0x3efc0f01	0.49230197
202	0xbf6ecea9	-0.9328409
203	0x3f3a836d	0.7285679
204	0xbdf95853	-0.1217505
205	0xbdf18e75	-0.1179475
206	0xbda1b852	-0.078964844
207	0x3d0babac	0.034099266
208	0x3d7eb216	0.062181555
209	0x3cf5bd45	0.029997477
210	0x3e8e77dc	0.2782582
211	0xbe067f31	-0.13134457
212	0x3f3429b1	0.70376116
213	0xbf980030	-1.1875057
214	0x3f76758c	0.9627311
215	0xbe572a0e	-0.21012136
216	0x3cc77174	0.02434609
217	0xbd83afc4	-0.06430009
218	0x3e44c60b	0.19216172
219	0x3e34b883	0.1764851
220	0x3cc4813a	0.023987401
221	0xbd1f93b9	-0.03895924
222	0x3dc22bb8	0.09480995
223	0xbef49edc	-0.4777745
224	0x3d7fbd21	0.062436227
225	0x3e0cc87e	0.13748357
226	0x3e06faef	0.13181661
227	0x3dc95164	0.09829977
228	0x3d9fc26d	0.07800756
229	0x3d16088c	0.036629245
230	0x3d89f275	0.06735698
231	0x3cf509f5	0.029911974
232	0xbdf5395a	-0.119738296
233	0x3d242907	0.04007819
234	0xbe12d782	-0.14340022
235	0x3f85cc79	1.0453025
236	0xbf8c3881	-1.0954744
237	0x3cb6595f	0.022259412
238	0xbd9fce14	-0.07802978
239	0x3d18a9de	0.037271373
240	0xbd43134a	-0.047625817
241	0xbc6d23e7	-0.014473892
242	0xbd7620ad	-0.060089756
243	0xbe0a79b6	-0.13522992
244	0x3dc6ae7f	0.09701251
245	0xbe434698	-0.19069898
246	0xbf0b20a4	-0.5434668
247	0x3d6151c9	0.055009637
248	0x3df9ffcd	0.12206993
249	0x3a5f2772	0.0008512653
250	0x3caf1a8c	0.021374963
251	0xbc133403	-0.0089845685
252	0xbcf1af7d	-0.029502625
253	0xbe1a49be	-0.15067193
254	0xbd3023ee	-0.043003015
255	0xbdc2ca3b	-0.09511229

SpliceAI.res_layers.0.comboBlock.0.convlayer1.bias f4 [16]
0	0x3dfb8aa8	0.12282306
1	0x3f2629ac	0.64907336
2	0x3f246f2b	0.6423213
3	0xbe38416f	-0.17993711
4	0x3d4cca5d	0.049997676
5	0xbea5f5c2	-0.3241406
6	0xbe1e1d55	-0.15440877
7	0x3e70269e	0.23452231
8	0xbef95690	-0.48698854
9	0xbc84de24	-0.016219206
10	0xbee92ef4	-0.45543635
11	0x3e1f928f	0.15583251
12	0x3e8fa9ed	0.2805933
13	0x3e67b1bf	0.22626399
14	0x3e9b437a	0.30324918
15	0xbdc77101	-0.09738351

SpliceAI.res_layers.0.comboBlock.0.convlayer2.weight f4 [16, 16, 11]
0	0x3e286370	0.16444182
1	0x3e32cb30	0.17460322
2	0x3e94acd1	0.29038098
3	0x3e673d6c	0.22582024
4	0x3e43b684	0.19112593
5	0x3ea14719	0.31499556
6	0x3ea3d788	0.32000375
7	0x3e8ba1b8	0.2727182
8	0x3e580037	0.21093832
9	0x3e4e1ae7	0.2012745
10	0x3e3c9002	0.1841431
11	0xbe35f56b	-0.17769401
12	0xbdf14b52	-0.11781944
13	0xbc066f7f	-0.008205294
14	0xbe785c0f	-0.24253868
15	0xbf20e28f	-0.628457
16	0xbd688979	-0.05677173
17	0xbe064858	-0.13113534
18	0x3e187b75	0.14890845
19	0xbe0edb40	-0.13950825
20	0xbc9292b0	-0.017892212
21	0x3ddba830	0.107254386
22	0x3ecb4be1	0.3970633
23	0x3e8682b1	0.26271585
24	0xbd81a094	-0.06329456
25	0x3e315820	0.17318773
26	0xbd38b967	-0.04509869
27	0x3db1d609	0.08683402
28	0xbd6b8547	-0.05750015
29	0x3e2307b7	0.15920912
30	0x3e4e8e4e	0.20171472
31	0x3e949ef0	0.2902751
32	0x3d81cff8	0.06338495
33	0xbdbc178c	-0.09184179
34	0x3e0378b3	0.12839012
35	0x3e875f69	0.2643998
36	0x3e10fc77	0.14158808
37	0x3e4f632d	0.20252676
38	0x3eded567	0.43522188
39	0x3ec9144a	0.39273292
40	0x3e114a9d	0.14188619
41	0x3eaa0c20	0.33212376
42	0x3db7258d	0.08942709
43	0xbded23ac	-0.115790695
44	0xbdf2901e	-0.118438944
45	0x3b98620b	0.0046503595
46	0xbe1b684b	-0.15176503
47	0xbe56b20f	-0.20966361
48	0xbe806f2b	-0.25084814
49	0xbe7bebc9	-0.24601664
50	0x3dd5c8dc	0.104387015
51	0xbc9c157f	-0.019053219
52	0x3dcbd7ed	0.09953294
53	0xbda3cf82	-0.07998563
54	0xbd8f5190	-0.06997979
55	0xbec8799c	-0.3915528
56	0x3f03d3d3	0.51495093
57	0x3d67d524	0.05659975
58	0x3dd12a38	0.10213131
59	0x3e22a345	0.15882595
60	0xbe245d02	-0.16051105
61	0x3d9cdf82	0.07659818
62	0x3dd390a8	0.10330325
63	0x3d9f006c	0.07763752
64	0xbca742ba	-0.02041756
65	0xbc0c0368	-0.008545734
66	0x3d452294	0.04812868
67	0x3c7d8fa1	0.015476138
68	0x3f17d13c	0.5930364
69	0x3f12b9f8	0.57315016
70	0x3f118605	0.5684512
71	0xbcc170d4	-0.023613371
72	0x3f1b67af	0.60705084
73	0x3e57bd54	0.21068317
74	0x3e0602ee	0.13087055
75	0x3e81ee9d	0.2537736
76	0x3d28851e	0.041142575
77	0xbd99e8f6	-0.07515137
78	0x3cb9ad6a	0.022665698
79	0xbda44173	-0.08020296
80	0xbd92836b	-0.07153972
81	0xbe83f879	-0.25775507
82	0x3e424c03	0.18974309
83	0x3d9fcbee	0.078025684
84	0x3e0ab821	0.13546802
85	0xbd5f8c55	-0.05457719
86	0xbdc5df1b	-0.096616946
87	0xbc1ec40f	-0.009690299
88	0x3e8437bb	0.2582377
89	0x3e894e7d	0.26817694
90	0x3f5d85dc	0.8653238
91	0x3f6403f6	0.89068544
92	0xbcb78d04	-0.022406109
93	0x3ebd2e95	0.36949602
94	0x3e6dacfd	0.23210521
95	0x3e2e300e	0.17010519
96	0x3d032783	0.032020103
97	0x3dff71e2	0.12472893
98	0x3ea5703f	0.323122
99	0xbc5ec7aa	-0.013597408
100	0x3dce261c	0.100658625
101	0xbe401413	-0.18757658
102	0x3db478ce	0.08812104
103	0x3dcd31c2	0.10019256
104	0xbc84a18c	-0.016190313
105	0xbd61f874	-0.055168584
106	0xbc85b04d	-0.016319418
107	0x3d78fb4a	0.060786523
108	0x3e10220e	0.14075491
109	0x3dfd53be	0.12369488
110	0xbc8998bf	-0.016796468
111	0x3d124050	0.035705864
112	0x3deac093	0.11462512
113	0xbe1c2753	-0.15249376
114	0x3df9ef30	0.122038245
115	0xbc5d4113	-0.013504284
116	0x3d44fbec	0.048091814
117	0x3d64cbf0	0.055858552
118	0xbd95da1f	-0.07316994
119	0xbe1ffd54	-0.15623981
120	0xbde1284f	-0.109940164
121	0x3e562f1a	0.20916405
122	0xbd8edc45	-0.06975607
123	0x3db7a97d	0.08967874
124	0x3eea4c79	0.4576147
125	0xbd9bb86c	-0.07603535
126	0xbda22957	-0.07918041
127	0xbe27fa3f	-0.16404055
128	0x3d989e48	0.07452065
129	0xbd128aef	-0.03577703
130	0x3dc90940	0.098162174
131	0xbd1a7f7b	-0.03771923
132	0x3d764d85	0.060132522
133	0x3df3d5ed	0.119060375
134	0xbdcf2bdf	-0.101157896
135	0xbd37a6dd	-0.044836868
136	0xbeb52b00	-0.3538437
137	0xbe4b3f47	-0.19848357
138	0x3d54f2f4	0.05198951
139	0x3e116b32	0.14201048
140	0x3e4052d6	0.187816
141	0x3e01694b	0.12637822
142	0x3dec6ffe	0.11544798
143	0xbe4a3350	-0.19746137
144	0xbdacb7b2	-0.084334746
145	0x3d80a8b4	0.062821776
146	0xbee419f4	-0.4455105
147	0x3de996e8	0.11405736
148	0x3e65df6f	0.22448514
149	0xbdf14119	-0.117799945
150	0x3d964db6	0.07339041
151	0x3d30e55a	0.043187477
152	0x3d84467c	0.06458756
153	0x3c08e576	0.008355489
154	0xbe1f27c4	-0.15542513
155	0x3e345e29	0.17614044
156	0xbe0cedcc	-0.13762587
157	0x3ec63d19	0.3871849
158	0x3eca0a8f	0.3946118
159	0xbe3b470e	-0.18288824
160	0x3dbc50e9	0.0919512
161	0xbd02edd0	-0.031965077
162	0xbd2fa80a	-0.042884864
163	0xbe188a0a	-0.14896408
164	0x3e1d621a	0.15369454
165	0x3eab8c38	0.33505416
166	0x3dd91838	0.106003225
167	0x3f17b39a	0.59258425
168	0x3eacce3f	0.33751103
169	0xbd3b1b0e	-0.0456801
170	0xbda12990	-0.078692555
171	0x3c4dfd95	0.012572666
172	0x3de58963	0.11207845
173	0x3d3d6c9b	0.046246152
174	0xbd00ca3a	-0.03144286
175	0xbe17407b	-0.14770691
176	0x3e0406d9	0.12893237
177	0xbd295846	-0.04134395
178	0xbcd9e228	-0.026597098
179	0x3cb19bc9	0.02168073
180	0xbccab8c9	-0.024746316
181	0x3e53ec38	0.20695579
182	0xbd06e292	-0.032930918
183	0xbd18012d	-0.037110496
184	0x3d46090c	0.04834847
185	0xbe86c860	-0.2632475
186	0xbd32d251	-0.043657605
187	0xbc942b16	-0.018086951
188	0xbe303f14	-0.17211562
189	0xbe82271d	-0.25420466
190	0xbc2dea72	-0.010614978
191	0xbdaa3668	-0.083111584
192	0x3e8833ab	0.2660192
193	0xbe9ff4ae	-0.31241363
194	0xbeb49e56	-0.3527705
195	0x3d41ff75	0.047362763
196	0xbe906296	-0.28200215
197	0xbeceb590	-0.40372896
198	0x3e254660	0.16140127
199	0xbc441908	-0.011968859
200	0xbdc6a8b6	-0.09700148
201	0xbf02e554	-0.51131177
202	0x3e2d3806	0.16915902
203	0x3e9b0194	0.30274642
204	0xbd3f114f	-0.046647366
205	0xbf01f76d	-0.50768167
206	0xbf203c55	-0.6259206
207	0x3da19d96	0.07891385
208	0xbe53549f	-0.20637749
209	0xbe4ad834	-0.19809037
210	0xbed6c8d3	-0.41950092
211	0xbebb8e51	-0.36632016
212	0x3e3564e2	0.17714265
213	0xbdce9415	-0.10086838
214	0xbecda365	-0.40163723
215	0xbdb840e8	-0.08996755
216	0xbf7a7be4	-0.9784529
217	0xbd98450b	-0.07435044
218	0xbe8aa716	-0.270806
219	0xbe969358	-0.2940929
220	0x3c1ba124	0.009498868
221	0xbe62bbcd	-0.22141953
222	0xbdd54c60	-0.10414958
223	0xbe2f589b	-0.17123644
224	0x3e1bebea	0.15226713
225	0xbe28fd72	-0.16502932
226	0x3df24927	0.11830359
227	0x3e5d2758	0.2159704
228	0xbf1353c2	-0.5754968
229	0xbe388f57	-0.1802343
230	0xbcc0d16b	-0.023537358
231	0x3d9f9c97	0.07793539
232	0x3e436225	0.19080408
233	0x3e143f14	0.14477187
234	0xbe4fb4a0	-0.20283747
235	0xbf539344	-0.82646585
236	0x3e83c5ee	0.25736946
237	0xbdb2c073	-0.08728113
238	0xbe314a17	-0.1731342
239	0x3cd06f94	0.02544383
240	0xbe41751e	-0.18892333
241	0xb9802bd2	-0.0002444671
242	0xbc78551e	-0.015157012
243	0xbdd4f4d1	-0.103982575
244	0x3e13fb1b	0.14451258
245	0x3e1ea9ee	0.1549451
246	0xbdb156ea	-0.08659156
247	0xbe2d0845	-0.16897686
248	0x3dce1b6a	0.100638226
249	0xbf0eaa6d	-0.557288
250	0xbe35a257	-0.17737709
251	0xbeaef37a	-0.34170133
252	0xbe73e3fc	-0.23817438
253	0xbe052213	-0.1300128
254	0xbd3073c9	-0.04307917
255	0xbe718df2	-0.23589304

SpliceAI.res_layers.0.comboBlock.0.convlayer2.bias f4 [16]
0	0x3e36a09f	0.1783471
1	0xbcb848ac	-0.02249559
2	0xbe69a2bc	-0.22815984
3	0x3ea18821	0.3154917
4	0xbece792e	-0.40326828
5	0x3d64ec84	0.05588962
6	0x3c9be95d	0.019032175
7	0xbd961f75	-0.07330219
8	0xbe493d85	-0.19652374
9	0xbe2251af	-0.15851472
10	0xbe8ff564	-0.28116906
11	0x3c8aae6c	0.016928874
12	0x3e279dda	0.1636881
13	0xbebbdcf9	-0.36692026
14	0x3e2a4ebc	0.16631597
15	0xbc54f8c8	-0.012998767

SpliceAI.res_layers.0.comboBlock.0.bn1.weight f4 [16]
0	0x3f9241a0	1.1426277
1	0x3f553189	0.8327871
2	0x3fb463dd	1.4092976
3	0x3f91d2cb	1.1392454
4	0x3fadb18e	1.356981
5	0x3f4cc5df	0.7998943
6	0x3f8714a3	1.0553173
7	0x3f2e894b	0.6817824
8	0x3f295ad4	0.6615422
9	0x3f833526	1.0250595
10	0x3f97868c	1.1837935
11	0x3f0b3a25	0.54385597
12	0x3f1d9b41	0.61565024
13	0x3f6da678	0.92832136
14	0x3f55f2f3	0.83573836
15	0x3f82c8ab	1.0217489

SpliceAI.res_layers.0.comboBlock.0.bn1.bias f4 [16]
0	0x3c4aa29e	0.0123678725
1	0x3e2e1eb9	0.17003907
2	0xbe489256	-0.19587073
3	0xbdfc07ee	-0.123062
4	0x3d71db98	0.05904731
5	0xbf0e44fb	-0.55574006
6	0x3d36e562	0.04465235
7	0xbe99164e	-0.2989983
8	0xbda7393e	-0.08165215
9	0xbe9c21d7	-0.30494568
10	0xbe428f33	-0.18999939
11	0xbe509c73	-0.2037218
12	0xbecf4843	-0.4048482
13	0xbcb99c7c	-0.022657625
14	0xbe93b97f	-0.2885246
15	0xbe6e615e	-0.2327933

SpliceAI.res_layers.0.comboBlock.0.bn1.running_mean f4 [16]
0	0xbf020d6f	-0.5080175
1	0x3edb94f4	0.4288708
2	0xbe940c56	-0.28915662
3	0xbf1460a6	-0.57959974
4	0x3f3ed4d0	0.74543476
5	0xbf604a05	-0.87612945
6	0x3f32497e	0.6964339
7	0x3f45e6ee	0.77305496
8	0x3f3b0266	0.73050535
9	0xbf219fef	-0.63134664
10	0xbf116ae9	-0.56803757
11	0x3eb776c8	0.3583281
12	0x3f43575a	0.7630516
13	0x3f21afe7	0.6315903
14	0xbf1a9ff4	-0.6040032
15	0xbedcfe3d	-0.43162718

SpliceAI.res_layers.0.comboBlock.0.bn1.running_var f4 [16]
0	0x3d7fb503	0.062428486
1	0x3d8d8cc1	0.06911612
2	0x3e6702d2	0.2255967
3	0x3dea6817	0.11445635
4	0x3d6924a8	0.056919724
5	0x3e1ffa3c	0.156228
6	0x3d6f9d59	0.058499668
7	0x3e88d9a3	0.26728544
8	0x3d2637e6	0.040580653
9	0x3e81038f	0.25198027
10	0x3e6ab503	0.22920613
11	0x3d9e6173	0.07733431
12	0x3d1af3f2	0.0378303
13	0x3cf5f15a	0.030022312
14	0x3e18fe1b	0.14940684
15	0x3d84a6a1	0.064770944

SpliceAI.res_layers.0.comboBlock.0.bn2.weight f4 [16]
0	0x3f4db390	0.80352116
1	0x3f05b1f6	0.5222467
2	0x3ee34fc3	0.4439679
3	0x3ebbb455	0.3666102
4	0x3f158787	0.58409923
5	0x3f723769	0.946158
6	0x3f49dd89	0.7885366
7	0x3f337a61	0.7010861
8	0x3f551801	0.8323975
9	0x3f0b5a25	0.54434425
10	0x3eceae30	0.4036727
11	0x3f2263f5	0.6343377
12	0x3f3f18e2	0.74647343
13	0x3ee01650	0.43767023
14	0x3f2353c7	0.6379971
15	0x3e972a87	0.29524633

SpliceAI.res_layers.0.comboBlock.0.bn2.bias f4 [16]
0	0xbdec2746	-0.11530928
1	0xbd90bbaa	-0.07067044
2	0xbe36016e	-0.17773983
3	0xbd10dfe3	-0.035369765
4	0xbebc2709	-0.3674853
5	0xbe6b6427	-0.22987424
6	0xbda680d4	-0.08130041
7	0xbea847ce	-0.32867283
8	0xbeeafc36	-0.45895547
9	0xbe8baaa4	-0.27278626
10	0xbd7651f0	-0.060136735
11	0xbd3217ff	-0.043479916
12	0xbe98c9ac	-0.29841363
13	0xbd17c720	-0.037055135
14	0xbd7cf80a	-0.061759986
15	0x3c11c0f0	0.008896098

SpliceAI.res_layers.0.comboBlock.0.bn2.running_mean f4 [16]
0	0xc0543187	-3.315523
1	0x3f65c592	0.89754593
2	0xc04194ed	-3.0247147
3	0xc02d0032	-2.703137
4	0xc03ebf23	-2.980416
5	0xc03b75ac	-2.9290571
6	0xc061cd66	-3.5281615
7	0xbfb1cb95	-1.3890253
8	0xc0948daf	-4.6422954
9	0xc087a8e5	-4.239367
10	0xc0199faa	-2.4003701
11	0xbe90f49d	-0.28311625
12	0xbe0e9e40	-0.13927555
13	0xc02a3f37	-2.6601083
14	0xc0211016	-2.5166068
15	0xbfac66ce	-1.3468874

SpliceAI.res_layers.0.comboBlock.0.bn2.running_var f4 [16]
0	0x4128f63d	10.560117
1	0x419c70b5	19.555033
2	0x415b5ae2	13.709688
3	0x419a11b4	19.258644
4	0x4182d84f	16.35562
5	0x419cad96	19.584759
6	0x418665b0	16.799652
7	0x4205b659	33.428074
8	0x416a24ad	14.633954
9	0x417555af	15.333419
10	0x41a39b2e	20.450771
11	0x41c31fd0	24.390533
12	0x41e2efcb	28.367086
13	0x41a7137b	20.884512
14	0x41b5bbeb	22.716757
15	0x418ce464	17.611519

SpliceAI.res_layers.0.comboBlock.1.convlayer1.weight f4 [16, 16, 11]
0	0x3db41aa8	0.08794147
1	0xbdeb5cbe	-0.114922985
2	0xbdc84705	-0.09779171
3	0xbdf24b7e	-0.11830805
4	0xbe2e608f	-0.17029022
5	0x3d30581e	0.043052785
6	0x3e850e6c	0.25987566
7	0xbe61e6c5	-0.22060688
8	0x3e070001	0.13183595
9	0x3d8f3856	0.06993167
10	0xbf1b5e82	-0.6069108
11	0xbf0c38c6	-0.5477413
12	0xbcc2bb19	-0.023770856
13	0x3e4d34e8	0.20039713
14	0x3d86e289	0.06586177
15	0x3e95a028	0.29223752
16	0xbf037243	-0.51346225
17	0x3d451f88	0.048125774
18	0x3d9c4b43	0.076315425
19	0x3ea13ab9	0.31490114
20	0xbe22b88e	-0.15890715
21	0x3e83153d	0.2560214
22	0xbccee607	-0.02525617
23	0xbeec015a	-0.4609478
24	0xbf204c47	-0.6261639
25	0xbdd8ae74	-0.10580149
26	0x3f1658db	0.5872933
27	0xbd2c1b90	-0.042018473
28	0x3e9977ab	0.29974112
29	0xbf1a2379	-0.60210377
30	0xbee877bb	-0.45403847
31	0xbe2ca585	-0.16860016
32	0xbde49d24	-0.11162785
33	0x3eab5ad6	0.3346774
34	0xbe995322	-0.29946238
35	0x3d069020	0.032852292
36	0x3e0d9bf5	0.13829024
37	0x3eb706b2	0.35747296
38	0x3eb9f8cc	0.3632263
39	0xbc1c6ef6	-0.0095479395
40	0xbd5aaff0	-0.053390443
41	0xbdbf9e70	-0.093563914
42	0xbe54b9b8	-0.20773971
43	0xbe776c53	-0.24162416
44	0x3ebe053b	0.37113366
45	0x3d7d3057	0.06181368
46	0xbdf8f7b9	-0.12156624
47	0x3e1b3d8b	0.15160196
48	0x3e91a4fa	0.2844618
49	0x3db08598	0.08619231
50	0x3d8655c3	0.065593265
51	0xbd6c6cf5	-0.057721097
52	0x3d10ea17	0.035379495
53	0x3cf6d4dc	0.030130796
54	0x3dc552b8	0.09634918
55	0xbcfe7848	-0.031063214
56	0xbea65079	-0.3248327
57	0xbf150dfb	-0.5822446
58	0x3eb7ba2d	0.35884228
59	0x3c9e20f6	0.019302826
60	0x3e54f6d5	0.20797284
61	0xbeb8c36d	-0.36086598
62	0x3e17da27	0.14829312
63	0xbe5c70f3	-0.21527462
64	0x3f128559	0.5723472
65	0x3de59c2f	0.1121143
66	0xbe9f0643	-0.31059465
67	0x3ea22cff	0.31674954
68	0x3f07b9c2	0.5301782
69	0xbdc098e1	-0.09404159
70	0xbddf707f	-0.10910129
71	0x3d857100	0.06515694
72	0xbe4eb719	-0.20187034
73	0x3c8b806e	0.017029013
74	0xbd381ddc	-0.04495035
75	0x3e2e558f	0.17024826
76	0xbda17dd4	-0.07885328
77	0xbe0cb001	-0.13739015
78	0xbe9c1c90	-0.3049054
79	0xbee0c4e8	-0.43900228
80	0xbcff22fe	-0.031144615
81	0xbf4c0337	-0.79692405
82	0xbee9027c	-0.45509708
83	0xbf272310	-0.65287876
84	0x3caf568e	0.021403577
85	0x3e02a826	0.12759456
86	0x3b7a4815	0.0038189937
87	0xbd3a7473	-0.04552121
88	0x3e09edfb	0.13469689
89	0x3ea71e74	0.3264042
90	0xbb9d0cc1	-0.00479278
91	0xbe05da9f	-0.13071679
92	0x3f716cf1	0.94306856
93	0xbed67b88	-0.41891122
94	0x3e0157b0	0.12631106
95	0x3da78597	0.08179777
96	0x3eb5f4fa	0.35538465
97	0x3f169252	0.5881702
98	0xbdd99bb9	-0.10625405
99	0x3c572102	0.013130428
100	0xbed52955	-0.41633096
101	0x3eb3791b	0.35053334
102	0x3f09cc21	0.538271
103	0xbeb74910	-0.3579793
104	0xbdb92979	-0.090411134
105	0xbe75d92c	-0.24008626
106	0xbe73f5fc	-0.23824304
107	0xbddddad6	-0.10832755
108	0x3dd2708d	0.102753736
109	0xbd1a76a0	-0.037710786
110	0xbea9341f	-0.33047578
111	0x3f3d616e	0.7397679
112	0x3f83deb9	1.0302345
113	0xbe7f97db	-0.24960272
114	0x3ee5a51d	0.44852534
115	0xbe92c626	-0.286668
116	0xbe8815d2	-0.26579148
117	0x3eaec04e	0.34131092
118	0xbe16b157	-0.14716087
119	0x3df422d4	0.119207054
120	0xbca6b4cf	-0.020349888
121	0x3d0b19d4	0.03396018
122	0x3e055648	0.13021195
123	0xbae1306a	-0.0017180566
124	0x3e930356	0.28713483
125	0xbf04c107	-0.51857036
126	0x3cca1f4f	0.024673132
127	0xbc41400f	-0.011795058
128	0xbf139796	-0.57653177
129	0xbea38e56	-0.3194453
130	0xbe67b974	-0.22629339
131	0xbedbb019	-0.4290779
132	0x3cdf881e	0.027286585
133	0xbe5ee450	-0.21766782
134	0xbecab595	-0.3959166
135	0x3c7c66b9	0.01540535
136	0x3d954286	0.07288079
137	0xbd437557	-0.047719326
138	0x3e85e72d	0.26152936
139	0x3ee70f8e	0.45129055
140	0x3c900869	0.017582135
141	0x3dc6f750	0.0971514
142	0xbd138476	-0.036014996
143	0x3ebe2f1c	0.37145317
144	0xbea93cca	-0.3305419
145	0x3e6680ae	0.22510025
146	0x3f404292	0.7510158
147	0xbe21accf	-0.15788577
148	0xbe988bdf	-0.29794213
149	0xbe0aa72c	-0.13540334
150	0x3e77d17d	0.24201007
151	0x3e3254d1	0.17415167
152	0x3d84d199	0.0648529
153	0xbd522b08	-0.05131057
154	0x3e606a87	0.21915637
155	0x3f1c9ae3	0.6117384
156	0x3f4d10a8	0.8010354
157	0x3efc807f	0.49316785
158	0x3f1c6001	0.6108399
159	0xbee26e31	-0.44224694
160	0xbe26c987	-0.16287814
161	0x3da197af	0.078902595
162	0xbe09c339	-0.13453378
163	0x3cf8d304	0.030374058
164	0xbd108add	-0.03528868
165	0xbeb9aba4	-0.36263764
166	0xba03ca89	-0.00050274335
167	0x3edc1492	0.42984444
168	0xbd599751	-0.053122822
169	0x3db14b60	0.08656955
170	0xbe88094f	-0.26569602
171	0xbd8970c9	-0.06710965
172	0xbeb924e7	-0.36160967
173	0x3eb705fc	0.35746753
174	0x3d2aac3a	0.041668154
175	0x3db1ae30	0.08675802
176	0xbdd3eea8	-0.103482544
177	0x3baca6a6	0.0052688895
178	0xbdc99e4a	-0.09844644
179	0xbe8b1bd2	-0.27169663
180	0xbee83e7a	-0.45360166
181	0x3e995bff	0.29953
182	0xbe85fcc1	-0.26169398
183	0x3d238c0a	0.039928474
184	0x3d30ce27	0.043165352
185	0x3e7a6b2b	0.24454944
186	0xbf0500dd	-0.5195444
187	0xbd75e396	-0.060031496
188	0x3f1ebb58	0.62004614
189	0x3dbd2d5c	0.09237167
190	0xbaeb0f09	-0.0017933558
191	0x3c658a54	0.014010031
192	0xbe7bd3e1	-0.24592544
193	0x3ece7893	0.40326366
194	0xbd50cd68	-0.05097714
195	0xbd374635	-0.04474469
196	0xbe14ac41	-0.14518835
197	0x3e0fc050	0.14038205
198	0xbd463e99	-0.04839954
199	0xbe9396ae	-0.28825897
200	0x3efe5bc7	0.49679396
201	0xbed97028	-0.4246838
202	0xbdefd3c2	-0.117103115
203	0x3d741866	0.05959358
204	0xbc908fea	-0.017646749
205	0xbbe5bb56	-0.0070108576
206	0x3d2235ed	0.03960221
207	0xbe918f43	-0.28429613
208	0xbd3aedd1	-0.045636956
209	0x3eb4787d	0.35248175
210	0xbef41f1a	-0.4767998
211	0xbbf39332	-0.0074333185
212	0xbde540b1	-0.111939795
213	0x3e1d53c8	0.15363991
214	0xbcbbd916	-0.022930663
215	0x3e0ae8e2	0.135654
216	0xbed03afb	-0.4067
217	0x3bacb752	0.005270877
218	0x3c5e7866	0.01357851
219	0xbe7200ad	-0.2363307
220	0x3e11af08	0.14226925
221	0xbe08aaf7	-0.13346468
222	0x3e013a45	0.12619884
223	0x3eb53d7b	0.35398468
224	0x3ec741d5	0.38917413
225	0xbe3c3bfa	-0.18382254
226	0x3e9ef315	0.31044832
227	0xbd754111	-0.059876505
228	0xbeab855f	-0.33500192
229	0xbd609d3c	-0.05483745
230	0xbe96818d	-0.29395714
231	0x3ddca7cf	0.107741944
232	0x3d68e0a0	0.056854844
233	0xbeac3002	-0.33630377
234	0xbeb17f47	-0.34667417
235	0x3e70c2a6	0.23511752
236	0x3ee686d0	0.4502473
237	0xbe1feaf2	-0.15616968
238	0x3d88aeac	0.06673941
239	0xbe5a1aa6	-0.21299228
240	0xbe36f367	-0.17866288
241	0x3e118f14	0.14214736
242	0xbebbaf0f	-0.36656997
243	0x3e7911ca	0.24323192
244	0xbe9b62d4	-0.30348837
245	0x3e37a9b0	0.17935824
246	0x3e2610e4	0.16217381
247	0x3cfce66b	0.03087159
248	0xbe81a780	-0.25323105
249	0x3d23f403	0.04002763
250	0xbd0ac19c	-0.033876047
251	0x3c91ba59	0.017789053
252	0xbe9b9532	-0.30387264
253	0x3d02eded	0.031965185
254	0x3e6cac91	0.23112704
255	0xbf2f416d	-0.68459207

SpliceAI.res_layers.0.comboBlock.1.convlayer1.bias f4 [16]
0	0x3d888fba	0.06668039
1	0xbe34c538	-0.17653358
2	0x3ec8d444	0.39224446
3	0xbe856fcf	-0.26061866
4	0x3e5f8667	0.21828614
5	0xbe097b20	-0.13425875
6	0x3eac360f	0.33634993
7	0x3eb9b241	0.3626881
8	0x3de371cd	0.1110569
9	0xbe870e8e	-0.26378292
10	0x3eadfbb3	0.33981094
11	0x3e88eac0	0.267416
12	0xbe8059dc	-0.25068557
13	0xbe2aa06b	-0.16662757
14	0xbdcf69e7	-0.10127621
15	0xbc24a715	-0.010049601
