Model_distilation/Results/Model_distilation_RESULTS/best_spliceformerlite_distillation_ENSEMBLE.pt (torch, 366833 bytes, 141 tensors)

SpliceAI.conv_layer_1.weight f4 [16, 4, 1]
0.12747568 -0.17396924 -0.31753 0.7285166 -0.39874956 -0.13208644 0.35963592 -0.29816014
0.3239001 -0.49715173 -0.7765468 -0.24023633 -0.0004158307 -0.06465912 -0.60187286 -0.26734504
-0.3111753 0.30755594 -0.016834386 -0.48341534 0.01787941 -0.003184372 -0.334415 -0.7202472
-0.28483525 0.015473769 0.24284858 -0.3485069 -0.19185328 0.15435195 -0.6126726 0.2402824
0.59892374 0.031720735 -0.056950744 0.3064053 -0.17913806 0.013790402 0.3571071 -0.05029218
-0.15728231 -0.4460863 -0.58142304 0.28037778 0.67516524 0.22091064 0.3569235 0.11271541
0.040954534 -0.006930187 -0.26704314 -0.7067115 -0.8020267 -0.071023524 -0.49786514 -0.020587077
-0.23690763 0.285972 -0.09671034 -0.31218866 0.02576604 0.12948361 -0.0020095408 -0.62948513
00000000: fc88 023e fe24 32be 4b93 a2be 1080 3a3f
00000010: e728 ccbe ab41 07be 3322 b83e 72a8 98be
00000020: 3cd6 a53e ac8a febe c5cb 46bf 8300 76be
00000030: da03 dab9 006c 84bd 5714 1abf 73e1 88be
00000040: 5e52 9fbe f977 9d3e 44e8 89bc 3782 f7be
00000050: d777 923c e6b0 50bb 7138 abbe 1f62 38bf
00000060: edd5 91be b185 7d3c 4cad 783e 7f6f b2be
00000070: 3075 44be 700e 1e3e 1dd8 1cbf 970c 763e
00000080: 1153 193f 9aed 013d 2f45 69bd 28e1 9c3e
00000090: f86f 37be 23f1 613c bed6 b63e 2cff 4dbd
000000a0: 9d0e 21be 6c65 e4be 24d8 14bf ad8d 8f3e
000000b0: a1d7 2c3f 6636 623e adbe b63e 56d7 e63d
000000c0: f1bf 273d 9f16 e3bb e1b9 88be 0beb 34bf
000000d0: 9f51 4dbf c874 91bd 2ee8 febe 3ba6 a8bc
000000e0: ea97 72be ec6a 923e 1210 c6bd 31d7 9fbe
000000f0: 4d13 d33c 5a97 043e 80b2 03bb f025 21bf

SpliceAI.conv_layer_1.bias f4 [16]
0.25102833 -0.2601049 -0.21972902 -0.19262505 -0.20513491 -0.1690512 -0.26414394 0.18621393
0.28335688 0.052367467 -0.30850548 0.19237809 -0.12876686 -0.21991454 -0.40924463 0.24174954
00000000: c986 803e 782c 85be a500 61be 803f 45be
00000010: e30e 52be c21b 2dbe e03d 87be ddae 3e3e
00000020: 2714 913e 457f 563d 6ef4 9dbe c3fe 443e
00000030: 76db 03be 4731 61be 8388 d1be 318d 773e

SpliceAI.skip_layers.0.weight f4 [16, 16, 1]
0.05111789 -0.081084274 -0.11151083 -0.09328415 0.23938002 -0.14625698 -0.14895537 0.30557743
0.20481908 0.124011844 -0.25582576 0.10978129 -0.04534482 -0.00053751486 0.1545859 0.29246435
-0.065890215 0.09169232 -0.15737215 0.027279362 0.062682934 -0.037803233 0.002331203 0.04794025
-0.07787473 0.32980612 -0.03220532 0.0656953 -0.005569046 -0.006135665 -0.063203216 0.048321363
-0.35865384 -0.042846277 -0.026374456 -0.104986385 0.021989863 0.13366896 0.03768077 -0.24362867
0.058094803 -0.12652647 -0.27111992 0.7005399 0.10417747 -0.21642455 -0.25319543 0.74956477
0.20551422 -0.3078576 -0.12797694 -0.07225287 -0.23433788 -0.1482184 -0.15778951 0.01584294
0.37900847 0.06362747 -0.28846353 0.23982441 -0.26408416 -0.24203275 -0.22614452 0.03323043
-0.013802036 0.17106198 0.36384323 0.058587108 -0.06448451 0.22508402 0.089064404 -0.22680493
-0.15542811 -0.19463955 0.2666619 -0.26056004 0.11073256 0.15718035 0.06484507 -0.22975594
-0.18637341 0.08116935 -0.060278855 0.12099463 0.14422712 0.031928472 0.16159795 -0.03777818
-0.24485572 0.056879632 0.11400051 0.061556596 0.09783744 0.102360554 0.12999257 -0.042622652
-0.100802206 0.2457052 0.22184947 0.24916248 -0.14298181 0.19251941 0.24837816 -0.13255177
-0.2883143 -0.20212626 0.37187755 -0.1973087 0.16616485 0.041577816 0.05188852 -0.2987073
-0.0011006986 -0.008161623 0.06690566 0.094489336 0.12759672 0.07303129 0.048446044 -0.1934438
0.021915793 0.11315389 0.027421573 -0.010826514 0.008545938 -0.054103807 0.17547643 -0.23523925
0.12016576 -0.259974 -0.17845188 -0.117752746 -0.15378784 -0.24738097 -0.27854958 -0.010079742
0.31305578 0.15767255 -0.19357571 0.37814426 -0.098925695 -0.26206794 -0.09035377 -0.047061577
-0.47670138 0.45398638 0.38633516 0.21482608 0.43036547 0.40667725 0.4666007 -0.37426305
-0.5018151 -0.13304065 0.4023914 -0.16202931 0.3546071 0.41229126 0.24661846 0.0012361218
0.14127958 0.049925126 0.0844659 0.122409336 0.10169038 0.0010158084 0.07559908 0.3121698
-0.23087913 0.003603161 0.19183241 -0.23944663 -0.09073738 0.110777445 0.13743433 -0.13549992
-0.19609341 0.014850906 0.11243604 -0.22312741 -0.0782754 0.09570972 0.16037367 -0.50123346
-0.11813403 0.13209295 -0.08399742 0.35853246 0.12374324 -0.19389817 -0.07637728 0.34220716
0.26697665 -0.180468 -0.19783546 -0.2612207 -0.2740446 -0.19917159 -0.16027543 -0.077544704
0.26502162 0.005637354 -0.12257395 0.21839179 -0.16434748 -0.20070939 -0.20248601 0.020181213
-0.46067166 0.5959928 0.43156728 0.40928325 0.34591886 0.33463335 0.44253743 -0.07905778
-0.63740563 -0.11417139 0.4724193 -0.4412482 0.26482403 0.4353893 0.4195734 -0.20200846
-0.02878108 0.078341484 0.13524945 -0.066612884 -0.028681515 0.14984101 0.1674486 0.19284959
-0.22391924 0.10657565 0.087523304 -0.14055909 0.035424374 -0.016133389 -0.004984544 0.15030149
0.054851092 0.15209956 -0.026066259 0.11206978 0.14930432 -0.0046236888 0.11304954 -0.16541167
-0.037083372 -0.110740334 0.12930383 0.12894233 0.11649515 -0.01746889 0.051235765 -0.11590516
00000000: fe60 513d 830f a6bd ca5f e4bd c30b bfbd
00000010: 0920 753e 64c4 15be c287 18be a574 9c3e
00000020: 18bc 513e ecf9 fd3d 98fb 82be 03d5 e03d
00000030: 7dbb 39bd 03e8 0cba c44b 1e3e e3bd 953e
00000040: 73f1 86bd 2fc9 bb3d 2a26 21be f878 df3c
00000050: e95f 803d 90d7 1abd 19c7 183b ff5c 443d
00000060: c97c 9fbd 59dc a83e bae9 03bd 428b 863d
00000070: 8b7c b6bb b00d c9bb b070 81bd 9fec 453d
00000080: 7aa1 b7be 947f 2fbd 3e0f d8bc 1a03 d7bd
00000090: 1624 b43c 84e0 083e 2757 1a3d cb79 79be
000000a0: d1f4 6d3d 2890 01be 3bd0 8abe 9556 333f
000000b0: ff5a d53d 669e 5dbe d5a2 81be 7ae3 3f3f
000000c0: 5272 523e 839f 9dbe 630c 03be 50f9 93bd
000000d0: 45f6 6fbe 90c6 17be 9393 21be 0ec9 813c
000000e0: 660d c23e 1e4f 823d 7eb1 93be 8894 753e
000000f0: 0a36 87be 6fd7 77be 6e92 67be a21c 083d
00000100: ef21 62bc df2a 2f3e a949 ba3e 09f9 6f3d
00000110: 7410 84bd 6d7c 663e 6667 b63d 8d3f 68be
00000120: 8c28 1fbe 974f 47be e987 883e 2068 85be
00000130: c1c7 e23d e3f3 203e 7ecd 843d 2445 6bbe
00000140: acd8 3ebe 1e3c a63d f6e6 76bd 08cc f73d
00000150: 46b0 133e 6ec7 023d ef79 253e 4bbd 1abd
00000160: 75bb 7abe 9efa 683d 1979 e93d c522 7c3d
00000170: ff5e c83d 69a2 d13d c61c 053e 1795 2ebd
00000180: 6371 cebd 259a 7b3e 822c 633e 7324 7f3e
00000190: d369 12be cf23 453e d856 7e3e a7bb 07be
000001a0: ef9d 93be 30fa 4ebe bc66 be3e 4b0b 4abe
000001b0: 1e27 2a3e 804d 2a3d 0f89 543d 2af0 98be
000001c0: 5145 90ba 54b8 05bc d605 893d a083 c13d
000001d0: b7a8 023e 6e91 953d 5c6f 463d 2216 46be
000001e0: c088 b33c 3abd e73d 35a3 e03c b161 31bc
000001f0: 4304 0c3c f49b 5dbd 18b0 333e 8fe2 70be
00000200: 7719 f63d 501b 85be 17bc 36be 5a28 f1bd
00000210: 8f7a 1dbe 7051 7dbe 0d9e 8ebe 8125 25bc
00000220: d948 a03e ea74 213e b638 46be 209c c13e
00000230: 8e99 cabd c52d 86be 660b b9bd a4c3 40bd
00000240: 3412 f4be e770 e83e b9cd c53e 5efb 5b3e
00000250: dd58 dc3e 0038 d03e 49e6 ee3e 689f bfbe
00000260: f476 00bf cf3b 08be 3f06 ce3e 03eb 25be
00000270: 108f b53e d717 d33e 8d89 7c3e 5d05 a23a
00000280: 98ab 103e 4a7e 4c3d 75fc ac3d bfb1 fa3d
00000290: 0c43 d03d e024 853a b1d3 9a3d b8d4 9f3e
000002a0: 946b 6cbe 0323 6c3b b76f 443e 7f31 75be
000002b0: 85d4 b9bd 49df e23d 96bb 0c3e 7ec0 0abe
000002c0: b6cc 48be 3751 733c de44 e63d 837b 64be
000002d0: da4e a0bd 7503 c43d ff38 243e d650 00bf
000002e0: 41f0 f1bd 6043 073e d706 acbd 9191 b73e
000002f0: 196d fd3d 3e8d 46be b16b 9cbd c735 af3e
00000300: 2ab1 883e 9acc 38be 6195 4abe b8be 85be
00000310: 934f 8cbe a3f3 4bbe 3e1f 24be c2cf 9ebd
00000320: eab0 873e 8eb9 b83b 0d08 fbbd 19a2 5f3e
00000330: b54a 28be c386 4dbe 7e58 4fbe 1253 a53c
00000340: 28dd ebbe fc92 183f 63f6 dc3e 938d d13e
00000350: 471c b13e 1055 ab3e 4494 e23e 0ce9 a1bd
00000360: 042d 23bf b1d2 e9bd f1e0 f13e 49eb e1be
00000370: 0497 873e 59eb de3e 53d2 d63e 4edb 4ebe
00000380: 4dc6 ebbc 8071 a03d d57e 0a3e 566c 88bd
00000390: 7ff5 eabc ec6f 193e a577 2b3e 5d7a 453e
000003a0: 164b 65be 5644 da3d 6b3f b33d b9ee 0fbe
000003b0: 2619 113d 2b2a 84bc 6355 a3bb a2e8 193e
000003c0: 8aab 603d fdbf 1b3e e888 d5bc d784 e53d
000003d0: 3be3 183e 5082 97bb 8486 e73d ad61 29be
000003e0: bce4 17bd d4cb e2bd 3968 043e 7509 043e
000003f0: 0295 ee3d eb1a 8fbc 98dc 513d af5f edbd

SpliceAI.skip_layers.0.bias f4 [16]
0.048507877 -0.007297893 0.1692816 0.16933134 -0.13736643 0.003333938 -0.10176014 -0.056982584
0.16392991 -0.3222374 -0.15149292 0.105734676 0.16823994 -0.37307125 0.09665613 -0.07939873
00000000: 32b0 463d 2a23 efbb 2858 2d3e 3265 2d3e
00000010: c9a9 0cbe 337e 5a3b 9f67 d0bd 9266 69bd
00000020: 3edd 273e 4dfc a4be f620 1bbe 6c8b d83d
00000030: 1747 2c3e 3203 bfbe a6f3 c53d cd9b a2bd

SpliceAI.skip_layers.1.weight f4 [16, 16, 1]
0.02596661 -0.015096046 -0.18684278 0.050396204 -0.05794112 0.1279809 -0.04916267 -0.19737811
-0.02381655 0.018582145 0.026867952 -0.04037803 -0.01924266 0.059994888 0.04294885 -0.11047138
-0.07333649 0.036135018 -0.046852432 0.018856201 0.0077339783 0.026404912 -0.1206906 0.23000477
0.02194152 0.11241335 -0.008373785 0.02313051 0.07723892 0.045860555 0.07520305 0.24318388
0.04540353 -0.01867122 -0.10486951 0.030579839 -0.44405723 -0.046457123 -0.010015201 -0.12731454
0.050051924 0.030386806 -0.092370495 -0.026894748 0.27976683 0.1799397 0.12814498 -0.1130861
0.008901478 -0.069194004 0.08015072 0.091502145 -0.04908013 -0.041047063 -0.22465989 0.034169015
-0.02821893 -0.11987644 -0.049091607 -0.067758806 -0.001743658 -0.04647822 -0.027278906 0.07186937
0.047808014 0.051473435 -0.053560253 -0.005311451 0.09372905 -0.050670687 0.19091935 0.015089398
0.12580015 0.12870991 -0.043511372 0.12649576 0.016588558 -0.020232072 -0.1454811 -0.049015198
-0.01582012 -0.070900075 -0.17243576 0.09314897 -0.08559846 -0.110336855 0.058549836 0.051170688
0.017288445 -0.03525185 0.2021637 0.16853999 0.09406689 0.020929918 -0.10784919 -0.011602592
0.029144652 0.07585092 -0.073180616 -0.059855945 0.010878836 -0.07188582 0.09560818 -0.18332486
0.025987428 0.006438928 -0.007786153 0.01651325 -0.021520428 0.008779315 0.00047607327 0.028850542
0.030142939 0.029181294 -0.047194786 -0.0018298903 -0.007967627 -0.0084772 0.047388025 -0.04221404
0.00017826774 0.016621754 -0.000570675 0.0052256826 0.040951476 0.046216633 0.016107406 0.045019444
0.12900561 0.12080963 -0.12660043 0.14296897 0.009394115 -0.008154077 0.23513627 -0.027278906
0.09376792 -0.19680873 -0.00020141625 -0.022929797 0.061918445 0.017924702 -0.022952132 -0.055334795
0.0850091 0.030821089 0.013909406 -0.004342674 0.12352401 -0.044790592 -0.006008619 0.07068874
-0.05262688 -0.005868985 0.06961847 0.08213196 0.13387932 0.21471971 0.031173319 0.007966152
-0.0059990436 0.023098866 0.20165193 -0.14986569 0.40591672 -0.017524771 -0.17785282 0.101008445
-0.23248973 0.1656888 -0.0015267332 -0.038700826 -0.26705295 -0.23418365 -0.0016042793 0.0392361
0.14272498 -0.006745357 0.109843224 0.015840309 -0.37336466 0.063163705 0.22805381 0.08649255
-0.04057726 0.12239333 -0.097537555 0.015142881 0.31693226 0.21690995 0.14327033 0.13970523
-0.065590486 -0.055621203 -0.1558242 0.07332864 0.032084398 -0.17926183 0.2848003 -0.23250069
0.08903599 -0.05715234 0.02858905 -0.10825241 0.12645106 -0.041668843 -0.06274173 0.082955085
-0.046470713 -0.018258015 0.0093550915 0.121287055 0.23485135 -0.046103798 0.016733706 -0.038681835
0.051114596 -0.08564898 -0.034504116 -0.060840618 0.0685453 0.12934658 -0.0017254453 -0.0053309025
0.017558131 0.019384142 -0.053244058 -0.006566781 0.016998699 -0.014997011 0.025021777 -0.048790745
0.002446959 0.024325788 0.00062746066 0.012308521 0.03516704 0.027261209 0.0026909711 0.026518226
0.02974288 0.016563043 -0.034035124 0.005316866 -0.006964581 0.0019575919 0.043090947 -0.009089437
-0.0063536502 0.022510124 0.0034257493 0.003075116 0.046348512 0.060777046 0.02346973 0.049928177
00000000: eeb7 d43c 6855 77bc b753 3fbe 406c 4e3d
00000010: ab53 6dbd 6d0d 033e cc5e 49bd 7d1d 4abe
00000020: ed1a c3bc 9539 983c 2e1a dc3c 6f63 25bd
00000030: c8a2 9dbc 33bd 753d 22eb 2f3d d23e e2bd
00000040: 7131 96bd 5002 143d 56e8 3fbd 5278 9a3c
00000050: 506d fd3b 1d4f d83c a22c f7bd 5f86 6b3e
00000060: b4be b33c f838 e63d 3332 09bc 327c bd3c
00000070: 702f 9e3d 47d8 3b3d 0f04 9a3d 3205 793e
00000080: 0df9 393d 63f4 98bc d3c5 d6bd 9282 fa3c
00000090: 785b e3be d349 3ebd cc16 24bc be5e 02be
000000a0: 3f03 4d3d c0ed f83c be2c bdbd 6052 dcbc
000000b0: 993d 8f3e 1d42 383e 7038 033e af99 e7bd
000000c0: 81d7 113c 96b5 8dbd 1026 a43d 7a65 bb3d
000000d0: 3f08 49bd f720 28bd 3e0d 66be cff4 0b3d
000000e0: 632b e7bc c781 f5bd 4814 49bd 21c5 8abd
000000f0: 748b e4ba f25f 3ebd 0378 dfbc 4030 933d
00000100: 56d2 433d cfd5 523d ff61 5bbd ae0b aebb
00000110: 04f5 bf3d 118c 4fbd 5d80 433e 8639 773c
00000120: c1d1 003e 88cc 033e fb38 32bd 1b88 013e
00000130: bae4 873c bbbd a5bc fff8 14be 29c4 48bd
00000140: 3299 81bc 0f34 91bd 0093 30be e3c4 be3d
00000150: 3f4e afbd 4af8 e1bd f4d1 6f3d 5b98 513d
00000160: 7fa0 8d3c 3e64 10bd 0004 4f3e bf95 2c3e
00000170: 24a6 c03d 3875 ab3c 09e0 dcbd cc18 3ebc
00000180: c4c0 ee3c ba57 9b3d b8df 95bd 822b 75bd
00000190: 253d 323c df38 93bd 39ce c33d 83b9 3bbe
000001a0: 96e3 d43c a5fd d23b fc22 ffbb cc46 873c
000001b0: 9c4b b0bc 1ed7 0f3c 7999 f939 f957 ec3c
000001c0: 53ee f63c 9c0d ef3c 524f 41bd eed8 efba
000001d0: a68a 02bc f4e3 0abc f219 423d a1e8 2cbd
000001e0: 62ed 3a39 582a 883c 5a99 15ba 343c ab3b
000001f0: bcbc 273d a74d 3d3d aef3 833c 4f66 383d
00000200: 0c1a 043e 0a6b f73d 8ba3 01be 7566 123e
00000210: c6e9 193c ae98 05bc 90c7 703e 0378 dfbc
00000220: 6509 c03d 3a88 49be 4333 53b9 45d7 bbbc
00000230: 329e 7d3d d3d6 923c 1c06 bcbc bda6 62bd
00000240: 4019 ae3d 827c fc3c 47e4 633c fd4c 8ebb
00000250: 28fa fc3d 5776 37bd f3e3 c4bb 42c5 903d
00000260: 498f 57bd 9d50 c0bb 2194 8e3d cd34 a83d
00000270: a917 093e 7cdf 5b3e 305f ff3c 7784 023c
00000280: a093 c4bb d539 bd3c d87d 4e3e 6476 19be
00000290: 51d4 cf3e 1c90 8fbc 0d1f 36be 84dd ce3d
000002a0: ca11 6ebe 53aa 293e aa1c c8ba c284 1ebd
000002b0: 2abb 88be d7cd 6fbe ae46 d2ba 08b6 203d
000002c0: 7f26 123e 2808 ddbb 7cf5 e03d 89c3 813c
000002d0: a729 bfbe f95b 813d f086 693e 0223 b13d
000002e0: 5734 26bd 5ba9 fa3d c5c1 c7bd d919 783c
000002f0: f244 a23e a41d 5e3e 75b5 123e e30e 0f3e
00000300: 4e54 86bd 0fd3 63bd 6190 1fbe 532d 963d
00000310: ee6a 033d 6a90 37be 58d1 913e a914 6ebe
00000320: 8058 b63d 9218 6abd 9533 ea3c 71b3 ddbd
00000330: 637c 013e f3ac 2abd bc7e 80bd 5be4 a93d
00000340: 1358 3ebd d591 95bc 1946 193c 5965 f83d
00000350: df7c 703e 56d7 3cbd 2015 893c d870 1ebd
00000360: 8a5d 513d bc68 afbd 3054 0dbd 0334 79bd
00000370: 7a61 8c3d 6e73 043e 5628 e2ba daae aebb
00000380: 12d6 8f3c 7ecb 9e3c 7116 5abd 272e d7bb
00000390: db40 8b3c 06b6 75bc 78fa cc3c ced8 47bd
000003a0: 295d 203b e046 c73c 2c7c 243a aea9 493c
000003b0: 500b 103d e652 df3c 015b 303b c03c d93c
000003c0: 57a7 f33c 38af 873c 6a68 0bbd 1b39 ae3b
000003d0: 2437 e4bb f14a 003b 2280 303d ddeb 14bc
000003e0: 4832 d0bb 2767 b83c 8982 603b e387 493b
000003f0: f0d7 3d3d 5af1 783d 9743 c03c 7d81 4c3d

SpliceAI.skip_layers.1.bias f4 [16]
0.048507877 -0.007297893 0.1692816 0.16933134 -0.13736643 0.003333938 -0.10176014 -0.056982584
0.16392991 -0.3222374 -0.15149292 0.105734676 0.16823994 -0.37307125 0.09665613 -0.07939873
00000000: 32b0 463d 2a23 efbb 2858 2d3e 3265 2d3e
00000010: c9a9 0cbe 337e 5a3b 9f67 d0bd 9266 69bd
00000020: 3edd 273e 4dfc a4be f620 1bbe 6c8b d83d
00000030: 1747 2c3e 3203 bfbe a6f3 c53d cd9b a2bd

SpliceAI.skip_layers.2.weight f4 [16, 16, 1]
-0.014175544 0.009499708 -0.10797913 -0.026460145 0.017937832 -0.11104642 -0.07821376 -0.16285121
0.022517499 -0.13791077 0.0006816336 0.038100265 -0.14300488 -0.018936811 0.034810983 0.19470675
-0.016975557 -0.16839784 0.09973885 0.06243109 0.043540694 0.0072382865 0.032079138 -0.042122863
-0.023973236 -0.013425338 0.00921072 0.019461617 0.0019625311 -0.02443229 -0.12653548 -0.16790564
-0.015548722 0.058512807 0.04547333 -0.035655875 -0.2839283 0.13500999 0.066247836 -0.08670236
-0.025903437 -0.09418389 -0.0253262 -0.0044041383 0.2903197 0.022616021 -0.056403905 -0.019644855
0.08145456 0.06548393 -0.09071031 -0.20646307 0.007213893 -0.013315755 0.07203865 0.04295228
0.0194644 -0.06668741 -0.13880856 0.09817288 0.05219459 0.024338992 -0.016973555 0.0935813
-0.11102236 -0.086103015 0.051461004 0.21966445 0.063133515 -0.03929425 -0.10274378 0.07408153
-0.09454981 0.083975255 -0.003814879 -0.103190005 0.024126291 -0.010998613 -0.049111746 -0.039089605
-0.028030982 0.12995678 0.14330739 -0.14661881 -0.01247725 0.0976443 -0.27104276 -0.086614825
-0.053514857 0.21353652 -0.1559941 -0.23202772 -0.07094561 0.0060489704 0.066132255 -0.023248807
0.0037038757 -0.06287777 -0.018566918 0.02126187 0.010543484 0.08718156 -6.350932e-05 0.08554466
0.0010198919 -0.058313955 -0.032065503 -0.04471207 -0.061963532 -0.053941123 0.025160465 -0.038690966
-0.0011025295 0.002825634 -0.01916206 0.0034954085 0.009460383 0.0038620946 0.0037821445 0.0041067996
0.022798317 -0.0028612036 -0.017260525 0.015022454 -0.0025108377 -0.032006126 0.016134659 -0.0025222902
-0.21743606 0.09151647 -0.012980657 -0.19923355 -0.003732916 0.07530421 0.06182895 -0.057608187
0.025959492 -0.061553586 0.25153807 0.1993566 0.044177286 -0.058197517 -0.11902886 -0.0146599235
0.1348281 -0.08120142 0.028211983 0.12024741 0.044261754 0.006263551 0.16672587 -0.061440628
0.018512888 -0.0911753 -0.1299487 -0.19862059 0.06443625 0.16130866 -0.061297275 -0.047458757
0.092848554 0.19139288 0.06590185 -0.091282636 0.1258026 -0.12353896 0.12172595 -0.08701741
0.098708495 0.032330714 -0.13667586 0.016609048 -0.09527215 0.05752647 0.0919022 0.0043205395
0.049973276 0.0569792 -0.085255 0.0701774 -0.089978695 -0.03693412 -0.090944655 0.111272916
0.089990765 0.16604795 0.0009272147 0.1458896 0.1861853 0.054729085 0.23230359 0.05959693
0.13017371 -0.04231504 -0.01948651 0.20540836 -0.037593506 0.021452986 0.06275386 0.13420615
0.07629403 -0.0895068 -0.027451275 0.035035316 -0.07176685 -0.0059495405 0.07322088 -0.083002135
-0.07715002 0.047330998 -0.029411282 -0.108409755 -0.015667282 0.10419253 -0.10999135 0.046376206
-0.02372594 -0.07190403 0.08355014 0.13100217 -0.026439685 0.22214836 0.03198537 0.047775976
0.00016791782 -0.010522049 -0.018190704 0.014852205 0.013716146 0.016365401 -0.008433254 0.00035197748
0.0147577375 0.00034270927 -0.03778377 -0.017368287 -0.011587327 -0.022171715 0.01051007 -0.0025091835
-0.0025729148 0.014424859 -0.014973493 0.0022468346 0.010505543 -0.01476867 -0.0013389 -0.014804685
0.025038444 0.019909892 -0.015520035 0.022724707 0.011483301 -0.034357645 0.015040755 0.003076016
00000000: 8a40 68bc aaa4 1b3c 2a24 ddbd f2c2 d8bc
00000010: 5cf2 923c 4e6c e3bd 892e a0bd 78c2 26be
00000020: 9e76 b83c 7b38 0dbe a8af 323a 060f 1c3d
00000030: df6f 12be 5f21 9bbc f695 0e3d 3561 473e
00000040: 5310 8bbc 7c70 2cbe e243 cc3d beb7 7f3d
00000050: ba57 323d 262f ed3b 6a65 033d 0689 2cbd
00000060: 8563 c4bc f3f5 5bbc 8fe8 163c f86d 9f3c
00000070: cf9d 003b 3a26 c8bc 8492 01be 75ef 2bbe
00000080: 11c0 7ebc 20ab 6f3d 3e42 3a3d e50b 12bd
00000090: 0d5f 91be 0f40 0a3e f2ac 873d 0291 b1bd
000000a0: 7233 d4bc 7ce3 c0bd e478 cfbc 9750 90bb
000000b0: c9a4 943e 3c45 b93c c807 67bd 3fee a0bc
000000c0: a6d1 a63d 701c 863d 54c6 b9bd 0e6b 53be
000000d0: 8562 ec3b 532a 5abc 0089 933d bbee 2f3d
000000e0: ce73 9f3c 6993 88bd d523 0ebe dd0e c93d
000000f0: ffc9 553d 9162 c73c 200c 8bbc 8da7 bf3d
00000100: b15f e3bd c756 b0bd c6c8 523d b8ef 603e
00000110: 254c 813d 02f3 20bd 556b d2bd 0fb8 973d
00000120: 55a3 c1bd 38fb ab3d 0d03 7abb 4855 d3bd
00000130: 80a4 c53c 8733 34bc 6629 49bd 6c1c 20bd
00000140: 3ba1 e5bc 6413 053e 2cbf 123e 3e23 16be
00000150: 616d 4cbc bcf9 c73d 1ec6 8abe 1d63 b1bd
00000160: 6532 5bbd 51a9 5a3e ebbc 1fbe ad98 6dbe
00000170: ef4b 91bd 7136 c63b 5970 873d 4874 bebc
00000180: b9bc 723b 0fc6 80bd a619 98bc 602d ae3c
00000190: 94be 2c3c 3f8c b23d 4e30 85b8 0a32 af3d
000001a0: e5ad 853a 9dda 6ebd 1e57 03bd 0124 37bd
000001b0: 79cd 7dbd 5ef1 5cbd 521d ce3c 6b7a 1ebd
000001c0: c082 90ba 462e 393b c1f9 9cbc 3913 653b
000001d0: b9ff 1a3c 321b 7d3b dbdd 773b 5592 863b
000001e0: 89c3 ba3c 0883 3bbb f265 8dbc bd20 763c
000001f0: de8c 24bb db18 03bd d52c 843c 024d 25bb
00000200: 8fa7 5ebe fd6c bb3d d2ac 54bc e103 4cbe
00000210: f0a3 74bb 1839 9a3d 5a40 7d3d 90f6 6bbd
00000220: 00a9 d43c 9d1f 7cbd 99c9 803e 2324 4c3e
00000230: 3ef3 343d 8560 6ebd 67c5 f3bd 2d30 70bc
00000240: 6110 0a3e ee4c a6bd d11c e73c 4644 f63d
00000250: d04b 353d 793e cd3b 30ba 2a3e 2ba9 7bbd
00000260: 57a8 973c 1eba babd 4611 05be 3263 4bbe
00000270: 27f7 833d 192e 253e da12 7bbd 1d64 42bd
00000280: 6227 be3d 7ffc 433e 8df7 863d 64f2 babd
00000290: 66d2 003e ff01 fdbd 744b f93d 2f36 b2bd
000002a0: ae27 ca3d 366d 043d c2f4 0bbe b30f 883c
000002b0: 0c1e c3bd e0a0 6b3d 3837 bc3d 5093 8d3b
000002c0: c7b0 4c3d 0663 693d 2c9a aebd 2bb9 8f3d
000002d0: c046 b8bd 3b48 17bd 3141 babd 0ee3 e33d
000002e0: 144d b83d 7908 2a3e 5310 733a 1564 153e
000002f0: 5ca7 3e3e 9b2b 603d fee0 6d3e e91b 743d
00000300: 424c 053e 8952 2dbd 2ca2 9fbc 9256 523e
00000310: a6fb 19bd 2cbe af3c 1985 803d 566d 093e
00000320: 0b40 9c3d 574f b7bd 7fe1 e0bc 3181 0f3d
00000330: 80fa 92bd 5df4 c2bb d4f4 953d 06fd a9bd
00000340: d400 9ebd 26de 413d eeef f0bc ef05 debd
00000350: ac58 80bc e562 d53d 2543 e1bd faf4 3d3d
00000360: e75c c2bc 6c42 93bd 561c ab3d 6f25 063e
00000370: 0a98 d8bc dc7a 633e 1703 033d beb0 433d
00000380: 1913 3039 ac64 2cbc ac04 95bc aa56 733c
00000390: b0b9 603c bc10 863c a22b 0abc 9e89 b839
000003a0: 70ca 713c a9ad b339 28c3 1abd f047 8ebc
000003b0: c6d8 3dbc 75a1 b5bc 6e32 2c3c 1d71 24bb
000003c0: 599e 28bb 3e56 6c3c 6253 75bc a13f 133b
000003d0: 711f 2c3c 4bf8 71bc 077e afba 598f 72bc
000003e0: 6c1d cd3c 121a a33c bf47 7ebc 2a29 ba3c
000003f0: 7524 3c3c 9aba 0cbd 806d 763c fc96 493b

SpliceAI.skip_layers.2.bias f4 [16]
0.048507877 -0.007297893 0.1692816 0.16933134 -0.13736643 0.003333938 -0.10176014 -0.056982584
0.16392991 -0.3222374 -0.15149292 0.105734676 0.16823994 -0.37307125 0.09665613 -0.07939873
00000000: 32b0 463d 2a23 efbb 2858 2d3e 3265 2d3e
00000010: c9a9 0cbe 337e 5a3b 9f67 d0bd 9266 69bd
00000020: 3edd 273e 4dfc a4be f620 1bbe 6c8b d83d
00000030: 1747 2c3e 3203 bfbe a6f3 c53d cd9b a2bd

SpliceAI.res_layers.0.comboBlock.0.convlayer1.weight f4 [16, 16, 11]
-0.13676557 0.13825507 -0.32117254 -0.51350176 -0.12969925 -0.27461025 -0.16915196 -0.19819371
-0.23686862 -0.22353111 -0.2138654 -0.064115085 -0.53279334 0.532247 0.46439272 -0.16130084
-0.1811707 -0.08010889 -0.109262295 -0.09275081 -0.071568325 -0.061527923 0.11684267 0.18818857
0.0523169 0.35729533 0.079793796 0.19096547 0.18891913 0.12902625 0.09736799 0.21995825
0.17311582 0.013932444 -0.21826653 -0.13792756 -0.15686359 0.027076347 0.019023636 0.07405729
0.030955894 0.020402825 0.02487412 0.069266506 0.020520475 -0.8088323 -0.53412414 -0.3205348
-0.066648155 -0.20859851 -0.011400138 -0.08261734 -0.09917228 -0.009317471 -0.03555532 0.033004284
-0.15515265 0.030843835 -0.009350074 0.018202344 -0.0057882727 0.03590517 0.09642183 0.021630071
0.05786363 0.12491844 0.08007219 -0.5717552 0.43280473 0.39763635 0.0029373383 -0.06009953
0.05453552 0.06387166 -0.0076283035 0.058564235 0.029368548 0.002817017 0.19692595 -0.55383164
-0.70631045 0.08732885 -0.123408586 -0.024042629 -0.00027390392 -0.0118184 -0.0026931525 -0.0034363493
-0.071503885 -0.039269585 -0.17262915 -0.0061128424 -0.15646434 -0.12884383 -0.09714379 -0.1526514
-0.21740791 -0.12475461 -0.13500683 0.12855725 -0.15011425 0.3788695 0.2730445 0.049601976
0.039960552 0.05807843 0.050930902 0.03646959 0.0803888 0.028961336 0.15724932 0.6773238
0.0005149085 -0.2836172 0.28705552 0.081263416 0.17119429 0.1491227 0.15917076 0.22858115
0.18451874 -0.039337534 -0.0373418 -0.04593421 0.12543024 -0.10962675 -0.015580335 -0.016128574
-0.04917926 -0.09700311 -0.098671935 -0.058299426 0.09462091 -0.15417008 -0.08855827 0.06473369
0.014170927 0.044553 0.08812601 0.040495183 -0.015181826 0.085283965 0.08666047 0.031662274
0.028460665 -0.12722853 -0.12350963 0.09630145 0.06869398 0.10557124 0.073681116 0.13924244
0.07235746 0.09735153 0.007608961 -0.8194062 -1.1864932 -0.64631456 0.06269666 -0.10813783
-0.034411415 0.015421638 -0.010283201 0.015274826 -0.005308592 0.083881184 -0.33872557 -0.01818159
0.112001754 -0.044362385 0.08309589 0.02994221 0.0047930926 0.032324687 0.048054177 -0.03749589
-0.06478713 0.01984358 -0.082055986 0.014483073 -0.13129811 -0.52734184 0.06979119 0.12440185
-0.015530792 0.062946364 0.08258281 0.16986027 0.17811589 0.15542467 0.085216016 0.010548007
0.5784014 -0.01520733 0.0641723 0.10122396 0.10328433 0.13201424 0.10064089 0.1405339
0.037491705 0.0022702557 0.6749896 -0.5446401 0.17155355 -0.037251044 0.14577883 0.0062536923
0.0054961545 0.047604658 -0.022195026 -0.054502804 0.16224055 0.11100284 0.26865524 -0.023176754
-0.011730709 0.035102632 0.10587548 0.0001394678 0.056917015 0.10743956 -0.098913915 0.045071688
-0.2924373 0.7491649 0.076566465 0.112561814 -0.036626082 0.058285125 0.09123892 0.09017075
0.1582318 0.12246774 0.22688194 0.5317542 0.12684482 -0.15072875 0.11500249 0.15871748
0.05643577 -0.008505365 0.0072184447 0.089185305 0.02278833 -0.017815849 -0.15988997 0.7623282
-0.16711313 -0.013045066 -0.0023643347 -0.030717095 0.041269097 -0.15746243 -0.05441367 -0.13659959
00000000: 460c 0cbe bd92 0d3e ba70 a4be da74 03bf
00000010: e1cf 04be b799 8cbe 2c36 2dbe 4bf3 4abe
00000020: b08d 72be 57e5 64be 88ff 5abe c54e 83bd
00000030: 2565 08bf 5741 083f e2c4 ed3e 0c2c 25be
00000040: d084 39be 2110 a4bd e9c4 dfbd 23f4 bdbd
00000050: 6a92 92bd b404 7cbd 364b ef3d 81b4 403e
00000060: 3f4a 563d 6aef b63e ee6a a33d 748c 433e
00000070: 0474 413e 751f 043e de68 c73d bc3c 613e
00000080: 4645 313e e844 643c 4381 5fbe e23c 0dbe
00000090: d9a0 20be 37cf dd3c 75d7 9b3c 59ab 973d
000000a0: 3797 fd3c d323 a73c cfc4 cb3c 99db 8d3d
000000b0: 8e1a a83c a20f 4fbf 5cbc 08bf 231d a4be
000000c0: d47e 88bd d99a 55be a5c7 3abc 4833 a9bd
000000d0: d61a cbbd 4ea8 18bc 75a2 11bd 802f 073d
000000e0: 56e0 1ebe 36ac fc3c 0e31 19bc 151d 953c
000000f0: 8dab bdbb 4d11 133d cf78 c53d 8c31 b13c
00000100: 6a02 6d3d 3dd5 ff3d e3fc a33d 8c5e 12bf
00000110: 9598 dd3e fe96 cb3e 5c80 403b ed2a 76bd
00000120: a360 5f3d 25cf 823d d9f6 f9bb 0de1 6f3d
00000130: 4f96 f03c b49d 383b f5a6 493e e9c7 0dbf
00000140: c3d0 34bf 78d9 b23d a4bd fcbd 0cf5 c4bc
00000150: c39a 8fb9 f6a1 41bc 9a7f 30bb 6034 61bb
00000160: a170 92bd 25d9 20bd b2c5 30be 3d4e c8bb
00000170: 3038 20be a3ef 03be 53f3 c6bd a650 1cbe
00000180: 2ea0 5ebe 587f ffbd 3b3f 0abe 83a4 033e
00000190: 8db7 19be 2ffb c13e 7dcc 8b3e 712b 4b3d
000001a0: adad 233d a6e3 6d3d ec9c 503d 2361 153d
000001b0: e2a2 a43d 5340 ed3c f705 213e 1865 2d3f
000001c0: edfa 063a 4636 91be f1f8 923e 6f6d a63d
000001d0: 8e4d 2f3e 9fb3 183e a9fd 223e 2d11 6a3e
000001e0: 7bf2 3c3e 6520 21bd b7f3 18bd 8325 3cbd
000001f0: c970 003e fd83 e0bd a944 7fbc 1220 84bc
00000200: 3170 49bd 91a9 c6bd 8314 cabd 61cb 6ebd
00000210: 9cc8 c13d c3de 1dbe 0a5e b5bd 1993 843d
00000220: 2d2d 683c 357d 363d 697b b43d 47de 253d
00000230: 32bd 78bc 5ca9 ae3d 0b7b b13d 4db0 013d
00000240: 5726 e93c 3248 02be 9ef2 fcbd b239 c53d
00000250: 6eaf 8c3d bc35 d83d 20e6 963d 9295 0e3e
00000260: 2630 943d 3d60 c73d 9754 f93b 9bc4 51bf
00000270: 02df 97bf df74 25bf 1b67 803d 5e77 ddbd
00000280: fcf2 0cbd 0aab 7c3c df7a 28bc 4443 7a3c
00000290: b3f3 adbb e6c9 ab3d 706d adbe 8ff1 94bc
000002a0: 2d61 e53d 55b5 35bd 2e2e aa3d 5e49 f53c
000002b0: 600f 9d3b e466 043d 75d4 443d 4a95 19bd
000002c0: 1daf 84bd 018f a23c f80c a8bd 694a 6d3c
000002d0: 0373 06be e0ff 06bf afee 8e3d 66c6 fe3d
000002e0: dd74 7ebc 06ea 803d 2d21 a93d daef 2d3e
000002f0: 0364 363e a527 1f3e bc85 ae3d 8cd1 2c3c
00000300: 1d12 143f 2a28 79bc c46c 833d 824e cf3d
00000310: bc86 d33d be2e 073e d01c ce3d 1ee8 0f3e
00000320: e790 193d 92c8 143b 1ecc 2c3f 896d 0bbf
00000330: bcab 2f3e 8d94 18bd 0c47 153e c6eb cc3b
00000340: 1619 b43b 1afd 423d 58d2 b5bc 553e 5fbd
00000350: 6322 263e 7555 e33d 2e8d 893e 2ddd bdbc
00000360: 2932 40bc c7c7 0f3d 3ed5 d83d 1a3e 1239
00000370: d121 693d 4609 dc3d 6193 cabd 179d 383d
00000380: 57ba 95be 45c9 3f3f e1ce 9c3d cf86 e63d
00000390: 3b05 16bd 62bc 6e3d 79db ba3d 71ab b83d
000003a0: 8407 223e 5ed0 fa3d bd53 683e 0b21 083f
000003b0: 9ce3 013e a358 1abe 6d86 eb3d d686 223e
000003c0: 3229 673d 165a 0bbc b488 ec3b c9a6 b63d
000003d0: 98ae ba3c 8bf2 91bc 32ba 23be f127 433f
000003e0: b41f 2bbe f9ba 55bc f4f2 1abb 6ba2 fbbc
000003f0: c909 293d d53d 21be dee0 5ebd c3e0 0bbe

SpliceAI.res_layers.0.comboBlock.0.convlayer1.bias f4 [16]
-0.040891565 -0.08379749 -0.63510364 -0.36069474 -0.2146904 -0.00034963866 -0.23818475 -0.10236799
0.089482 0.0273656 -0.005530216 0.030121243 0.019153278 0.5431202 -0.488799 -0.36471754
00000000: ea7d 27bd 059e abbd 2796 22bf fbac b8be
00000010: cdd7 5bbe b54f b7b9 b4e6 73be 4fa6 d1bd
00000020: 5742 b73d d32d e03c d036 b5bb d3c0 f63c
00000030: 56e7 9c3c ed09 0b3f dd43 fabe 42bc babe

SpliceAI.res_layers.0.comboBlock.0.convlayer2.weight f4 [16, 16, 11]
0.042784233 0.08874544 0.020197658 -0.04234799 -0.0835611 -0.12897344 -0.0027330366 -0.46073195
-0.07958189 0.34633976 -0.009068985 0.019031847 -0.01649875 0.062277228 -0.02619643 -0.007283736
-0.37663707 -0.14806533 0.18038072 0.072312795 -0.08139609 0.036305934 0.105648175 0.054944884
0.003175989 0.028774906 -0.037204213 -0.18430477 -0.1651912 0.04318617 -0.60137403 0.16450585
0.14660372 -0.040162154 0.059321407 0.062879816 0.14997205 -0.2920844 0.2755852 0.29076594
-0.15817189 -0.44215998 0.006749469 0.12329264 -0.05032965 0.07237914 0.046303272 -0.050200455
0.02108657 0.14287265 0.00803409 -0.090816654 -0.16268714 0.23880531 -0.14182727 0.08930699
-0.01646898 0.016630773 0.044000536 0.02702411 0.0696864 0.19723763 0.12637393 -0.4994444
-0.022122119 0.0073371194 0.014005706 0.0035325915 -0.030104432 -0.067372695 -0.098580524 0.030292459
-0.16331516 0.039073713 -0.24910216 0.25163743 -0.03214278 0.006456824 -0.0036359204 -0.062311344
-0.046842165 0.23188975 -0.23075847 0.049224723 -0.5759484 -0.22043695 -0.07909185 -0.07075208
-0.054964494 -0.13702329 -0.17378321 0.040846042 -0.003316263 0.2503477 -0.3385051 0.08764728
0.009158515 0.046538226 0.09079773 -0.0570192 -0.077154085 -0.06571613 0.08386362 -0.23653279
-0.052197445 -0.16978878 -0.08066968 -0.029177919 -0.12647931 -0.027764523 -0.006674701 0.07298185
-0.05695962 0.17334631 0.22483523 0.30732998 0.2643289 -0.06678429 -0.03257931 -0.007925798
-0.020243647 -0.043126564 0.004560048 -0.047827963 -0.21786945 0.029878441 0.13997352 0.045867983
-0.08973987 0.04387357 0.009093954 0.005805784 0.009216414 0.003321865 0.027884342 0.034937445
0.037516505 0.07684313 0.0043439222 0.18850374 -0.2245376 0.030621646 0.13120008 -0.08726714
-0.048955966 -0.03952327 -0.06856449 0.18601471 -0.03980724 -0.08233773 -0.1025442 0.019242287
0.30775505 -0.028907038 -0.1413784 0.07467742 0.22964099 -0.40569645 -0.022220828 0.0017409503
0.0038800698 0.05492724 -0.005829688 0.017608615 0.030301724 -0.04996385 -0.12470765 0.0057548964
0.028544145 -0.18513535 -0.63759625 0.47584128 -0.036989063 -0.3243646 -0.13483976 0.08594919
0.027181147 0.021363435 -0.030548928 0.03571766 -0.043816928 0.065813646 0.053169735 0.27488372
0.13767481 0.1633461 -0.010177094 -0.06716023 -0.046956707 0.033896197 0.012946786 0.113868505
0.2017626 0.014734062 -0.07889963 -0.01264745 -0.030385245 -0.049433704 -0.0411422 -0.06746654
-0.013306302 0.089189656 -0.05785032 0.1594277 0.029613849 -0.005135173 -0.59082913 0.01510774
0.24714254 -0.022197159 0.19133449 0.0920453 0.31468755 -0.37075445 -0.10055602 0.65746456
0.060209904 0.03937861 -0.015975993 0.094358996 -0.019588916 0.03895413 0.039738815 0.031889055
0.2061274 -0.1429944 -0.100119084 -0.10750894 -0.21626101 -0.018620312 -0.021420596 0.06355534
0.026890349 0.07115638 0.023766255 0.038781 0.05622751 -0.2930592 -0.17747416 0.18254022
0.031227443 0.08941238 -0.03114497 -0.0059638657 -0.023614613 -0.04998516 -0.09841619 0.16586599
0.17583095 -0.31799224 -0.13601439 0.021619512 0.10846214 -0.017159773 -0.08148629 0.07122509
00000000: 853e 2f3d 2bc0 b53d 8f75 a53c 1675 2dbd
00000010: 1522 abbd 9d11 04be bf1c 33bb 0fe5 ebbe
00000020: d4fb a2bd 7253 b13e 1496 14bc ade8 9b3c
00000030: 6328 87bc 6816 7f3d e599 d6bc 68ac eebb
00000040: 93d6 c0be 709e 17be b9b5 383e bb18 943d
00000050: feb2 a6bd 88b5 143d 125e d83d e30d 613d
00000060: 4124 503b 5ab9 eb3c 7263 18bd 64ba 3cbe
00000070: e227 29be fbe3 303d a6f3 19bf 3974 283e
00000080: 491f 163e 1281 24bd 01fb 723d 22c7 803d
00000090: 4692 193e 168c 95be 8119 8d3e 46df 943e
000000a0: d0f7 21be cb62 e2be a62a dd3b da80 fc3d
000000b0: 7726 4ebd 843b 943d 80a8 3d3d fe9e 4dbd
000000c0: bebd ac3c 354d 123e 6aa1 033c 15fe b9bd
000000d0: 7597 26be 6189 743e 2b3b 11be 95e6 b63d
000000e0: f4e9 86bc 423d 883c e839 343d ab61 dd3c
000000f0: beb7 8e3d a9f8 493e 2b68 013e 2db7 ffbe
00000100: 7239 b5bc 386c f03b 3078 653c 0d83 673b
00000110: 929d f6bc b2fa 89bd 96e4 c9bd e427 f83c
00000120: 173c 27be c20b 203d a314 7fbe 9fd6 803e
00000130: 26a8 03bd c493 d33b 9f48 6ebb 2e3a 7fbd
00000140: 92dd 3fbd 8274 6d3e f34b 6cbe dd9f 493d
00000150: 5b71 13bf 39ba 61be e8fa a1bd 77e6 90bd
00000160: 7322 61bd d54f 0cbe 3af4 31be 2e4e 273d
00000170: a955 59bb 932d 803e 8a50 adbe 6b80 b33d
00000180: 990d 163c de9e 3e3d 29f4 b93d f78c 69bd
00000190: f602 9ebd 2e96 86bd b1c0 ab3d a735 72be
000001a0: fdcc 55bd 1cdd 2dbe 2536 a5bd 8806 efbc
000001b0: cb83 01be 6d72 e3bc 73b7 dabb 8277 953d
000001c0: 7e4e 69bd b281 313e 353b 663e 5b5a 9d3e
000001d0: 1e56 873e 34c6 88bd e271 05bd 35db 01bc
000001e0: 01d6 a5bc 7ba5 30bd 756c 953b 41e7 43bd
000001f0: 2b19 5fbe a2c3 f43c 3855 0f3e 11e0 3b3d
00000200: 89c9 b7bd c6b4 333d cffe 143c 723e be3b
00000210: 7100 173c a6b3 593b b46d e43c 911a 0f3d
00000220: e8aa 193d ee5f 9d3d 7657 8e3b 2007 413e
00000230: 2fed 65be 3fda fa3c 5059 063e 1db9 b2bd
00000240: 0d86 48bd 27e3 21bd 8a6b 8cbd a47a 3e3e
00000250: eb0c 23bd afa0 a8bd b202 d2bd 00a2 9d3c
00000260: 1292 9d3e 74ce ecbc 80c5 10be 7af0 983d
00000270: 0227 6b3e 72b7 cfbe 7408 b6bc 9930 e43a
00000280: c548 7e3b 63fb 603d f806 bfbb f13f 903c
00000290: 523b f83c e5a6 4cbd b966 ffbd 9293 bc3b
000002a0: 69d5 e93c 1f94 3dbe 8239 23bf 78a1 f33e
000002b0: d881 17bd 1e13 a6be 6f13 0abe 2106 b03d
000002c0: ffaa de3c 5f02 af3c bf41 fabc ae4c 123d
000002d0: 6179 33bd 4ec9 863d 82c8 593d 8fbd 8c3e
000002e0: a0fa 0c3e 3344 273e d3bd 26bc 4d8b 89bd
000002f0: ad55 40bd bdd6 0a3d c21e 543c e433 e93d
00000300: db9a 4e3e 2367 713c 2196 a1bd 4037 4fbc
00000310: 7aea f8bc ff7a 4abd b984 28bd e62b 8abd
00000320: ad02 5abc 11a9 b63d 75f4 6cbd 0441 233e
00000330: be98 f23c f444 a8bb 9440 17bf 7486 773c
00000340: ef12 7d3e d1d6 b5bc 30ed 433e 3f82 bc3d
00000350: ba1e a13e 87d3 bdbe 51f0 cdbd 994f 283f
00000360: a99e 763d 774b 213d 16e0 82bc 4a3f c13d
00000370: ef78 a0bc 5e8e 1f3d 2bc5 223d 199e 023d
00000380: 1013 533e 206d 12be 3c0b cdbd a62d dcbd
00000390: 8773 5dbe a089 98bc 3f7a afbc 4d29 823d
000003a0: 2649 dc3c 70ba 913d 73b1 c23c d3d8 1e3d
000003b0: d14e 663d db0b 96be c9bb 35be d3eb 3a3e
000003c0: b2d0 ff3c d61d b73d bc23 ffbc 886c c3bb
000003d0: 6f73 c1bc 3dbd 4cbd 6d8e c9bd c6d8 293e
000003e0: 070d 343e e1cf a2be 5b47 0bbe 671b b13c
000003f0: 6621 de3d a792 8cbc 49e2 a6bd 76de 913d

SpliceAI.res_layers.0.comboBlock.0.convlayer2.bias f4 [16]
-0.14005405 0.2681656 -0.20364586 0.0030723421 -0.1548083 0.17393522 -0.18641233 0.10135617
0.25998208 0.07563329 -0.65240544 -0.68052155 -0.07132806 -0.180606 -0.60440356 0.08695113
00000000: 546a 0fbe 004d 893e 8a88 50be 5959 493b
00000010: 1186 1ebe 131c 323e e0e2 3ebe d393 cf3d
00000020: 5f1c 853e a0e5 9a3d 0b04 27bf a936 2ebf
00000030: 7214 92bd c7f0 38be 31ba 1abf 6f13 b23d

SpliceAI.res_layers.0.comboBlock.0.bn1.weight f4 [16]
0.99217194 1.4021337 0.92306334 0.46067798 1.2937039 0.56345946 0.9709145 0.92734796
1.0276909 0.8465498 1.2514917 0.757681 0.5750176 0.64706177 1.1900567 0.58133304
00000000: fbfe 7d3f 1e79 b33f e14d 6c3f fcdd eb3e
00000010: 1798 a53f e13e 103f da8d 783f ad66 6d3f
00000020: 608b 833f 7db7 583f e130 a03f 62f7 413f
00000030: 5a34 133f d7a5 253f c753 983f 3ed2 143f

SpliceAI.res_layers.0.comboBlock.0.bn1.bias f4 [16]
0.08405253 -0.109146036 -0.109733246 -0.46152872 -0.17198546 -0.41210946 -0.11330455 0.41020098
-0.1617208 -0.18461116 -0.048473895 -0.088721715 -0.3787625 -0.375559 -0.15956691 -0.12238887
00000000: bc23 ac3d f587 dfbd d3bb e0bd 7e4d ecbe
00000010: f51c 30be 0300 d3be 370c e8bd dd05 d23e
00000020: 239a 25be b50a 3dbe 908c 46bd bbb3 b5bd
00000030: 29ed c1be 4549 c0be 8265 23be 04a7 fabd

SpliceAI.res_layers.0.comboBlock.0.bn1.running_mean f4 [16]
0.38992307 -0.3964743 -0.441353 -0.39104387 -0.3618784 -0.42474088 -0.38141912 0.11631765
0.51061547 0.06399087 -0.4613133 0.49803877 -0.36315677 -0.53118676 -0.5198672 0.09956173
00000000: ffa3 c73e aefe cabe 05f9 e1be e736 c8be
00000010: 2048 b9be a377 d9be 5e49 c3be f337 ee3d
00000020: b2b7 023f a50d 833d 4231 ecbe f0fe fe3e
00000030: afef b9be dbfb 07bf 0416 05bf 05e7 cb3d

SpliceAI.res_layers.0.comboBlock.0.bn1.running_var f4 [16]
0.15401202 0.07271564 0.1511654 0.049371764 0.080309354 0.097461894 0.050720412 0.095293306
0.06363323 0.032751013 0.10392291 0.055861436 0.0952808 0.110493004 0.044805944 0.091007255
00000000: 54b5 1d3e f0eb 943d 1acb 1a3e 0c3a 4a3d
00000010: 3b79 a43d 1a9a c73d 35c0 4f3d 2329 c33d
00000020: 2452 823d ed25 063d 89d5 d43d f6ce 643d
00000030: 9422 c33d 284a e23d 7086 373d 0362 ba3d

SpliceAI.res_layers.0.comboBlock.0.bn2.weight f4 [16]
0.7360144 0.83652854 1.0216705 0.76944464 0.8343058 0.72464305 0.9121769 0.7057697
0.85433304 0.7495984 0.810015 0.7055606 0.7639159 0.8489327 0.78000224 0.6816104
00000000: 716b 3c3f bc26 563f 19c6 823f 53fa 443f
00000010: 1195 553f 3582 393f 6d84 693f 53ad 343f
00000020: 92b5 5a3f aee5 3f3f 255d 4f3f 9f9f 343f
00000030: fe8f 433f a753 593f 3aae 473f 057e 2e3f

SpliceAI.res_layers.0.comboBlock.0.bn2.bias f4 [16]
-0.19334352 -0.019540776 -0.16437559 -0.09174946 -0.35559925 -0.09063604 -0.044560067 -0.102011286
-0.079487875 -0.1714041 0.0048188074 0.19232304 -0.111340985 -0.13172643 -0.08628213 -0.3892561
00000000: d8fb 45be fa13 a0bc 1352 28be 24e7 bbbd
00000010: 1b11 b6be 639f b9bd 9e84 36bd 4beb d0bd
00000020: 8aca a2bd 8e84 2fbe 16e7 9d3b 55f0 443e
00000030: be06 e4bd 4be3 06be afb4 b0bd 934c c7be

SpliceAI.res_layers.0.comboBlock.0.bn2.running_mean f4 [16]
-2.7801402 -0.78808296 5.6613603 -4.093456 -2.3718026 -1.4787537 -0.3516951 -0.9204021
0.15442657 1.2398655 -1.1864712 -5.7737203 -2.6752508 -0.6936816 -4.9305744 -3.5043738
00000000: d1ed 31c0 cebf 49bf dd29 b540 97fd 82c0
00000010: 9dcb 17c0 cd47 bdbf 6111 b4be 799f 6bbf
00000020: 0022 1e3e eab3 9e3f 4ade 97bf 51c2 b8c0
00000030: 4f37 2bc0 1e95 31bf 44c7 9dc0 a947 60c0

SpliceAI.res_layers.0.comboBlock.0.bn2.running_var f4 [16]
12.1805 10.242562 3.0034328 15.536619 8.388433 15.401512 10.917933 16.078781
10.686807 9.510147 14.323502 7.948733 17.657854 12.653335 13.61638 21.542374
00000000: 54e3 4241 89e1 2341 3e38 4040 fe95 7841
00000010: 0637 0641 986c 7641 dbaf 2e41 58a1 8041
00000020: 29fd 2a41 9029 1841 102d 6541 055c fe40
00000030: 4943 8d41 0f74 4a41 b1dc 5941 c856 ac41

SpliceAI.res_layers.0.comboBlock.1.convlayer1.weight f4 [16, 16, 11]
-0.20873976 -0.18452525 -0.14084195 -0.7439194 0.5853671 -0.0411245 0.1843703 -0.047175344
-0.026131643 -0.31915915 -0.21323937 -0.0418448 -0.12037319 -0.17915328 0.32304624 -0.32586282
-0.08818365 -0.14936677 -0.022050818 -0.24859647 -0.17446493 -0.059753872 -0.1955576 0.15425262
-0.09956605 -0.019477969 -0.17405327 -0.090304404 0.2107363 0.29359204 -0.07739134 0.17426613
0.101424605 0.016730433 -0.21011534 -0.01159355 -0.16471106 -0.7900403 -0.6071346 0.05931183
-0.027682737 0.25702187 0.05371903 0.11842979 -0.08619791 0.19956368 0.5384953 0.026532548
-0.3523858 -0.13146812 0.1588234 0.43710208 -0.17247365 -0.37592757 -0.32797357 0.10191048
0.08498924 0.38356188 0.29942286 0.2468574 -0.32981202 -0.13441806 0.14815702 -0.15737274
0.06939483 0.2136564 -0.02050559 -0.07294812 -0.4443437 0.4889094 0.050048977 0.36049208
0.4277166 -0.47870833 -0.2140274 0.04603405 -0.03485208 0.116327114 -0.17590868 0.282172
0.13730012 -0.101544656 0.17338873 0.15399602 0.18685445 -0.23033194 -0.123569764 0.004116799
-0.15051633 -0.0026802535 0.0817641 0.026947094 0.099936806 0.018589336 0.2100172 -0.024850126
-0.054347303 -0.10643092 -0.16640662 0.035321154 -0.040801276 -0.053207435 0.15662341 0.19960134
-0.07689888 -0.30573204 -0.22186875 -0.14479515 0.14939466 0.0115271965 0.049059067 -0.08087287
0.03732229 -0.14699349 0.4364945 -0.06762902 -0.0765137 -0.45706445 -0.25979793 0.22197135
0.014961348 -0.098666534 -0.034651708 -0.0046312152 0.1649148 -1.1730849 1.0032953 0.14435653
-0.45572537 0.11974527 -0.052897025 -0.110182166 0.07401423 -0.010416651 -0.26131704 -0.12942727
-0.42809314 0.18699849 -0.25641266 0.72577465 -0.30480915 0.2397117 -0.15935823 -0.1761655
-0.050712597 0.34102437 -0.13540302 0.109752424 0.06226808 0.10921332 -0.3349386 0.22881548
0.038844027 0.03476583 -0.06444039 0.056731526 0.103393234 0.3980206 -0.3838197 0.3268995
-0.33600077 -0.1740007 0.30781877 0.06718197 0.17816134 -0.33988458 -0.39041469 0.12602755
0.035504986 -0.3617392 -0.19020641 0.057718147 -0.41605568 0.27727276 0.12050265 0.049737684
0.24018694 0.033468235 0.009672172 0.3737545 -0.43566698 -0.45991573 -0.88756686 -0.10129427
0.022762084 0.0678782 -0.09628383 0.15357745 -0.15132755 -0.07588258 -0.026926301 -0.16960758
-0.31186208 -0.17807673 -0.124238305 0.36330986 -0.04558027 -0.008233787 0.4242283 0.34375414
0.50849587 -0.33865207 0.1499898 0.46976593 0.032075502 -0.16696912 -0.383251 -0.29745486
0.32799196 -0.12118609 0.031584885 0.21098235 0.09837012 0.4765744 0.27451304 0.52143866
-0.1553391 -0.4304469 -0.006992885 0.038616836 -0.43904173 0.18029048 -0.52137077 -0.20888284
-0.5280624 -0.07759698 0.10881818 0.25104374 0.3270707 -0.00043407004 0.40036523 0.14673142
0.19595546 0.2860443 0.058309894 0.28297263 -0.023050724 0.22916405 0.31629434 0.27129212
0.10587276 -0.10661047 -0.09212095 0.015347413 -0.030706454 -0.6961077 -0.34800526 0.024713269
-0.14650053 0.37644324 0.12826765 -0.20096995 -0.15050459 -0.12958634 -0.092982225 -0.47595552
00000000: e0bf 55be 30f4 3cbe df38 10be 8071 3ebf
00000010: 9eda 153f 2a72 28bd 91cb 3c3e ef3a 41bd
00000020: 0712 d6bc d468 a3be 6c5b 5abe 7465 2bbd
00000030: 3886 f6bd f573 37be 5166 a53e 7ed7 a6be
00000040: a199 b4bd 9af3 18be eba3 b4bc 1390 7ebe
00000050: efa6 32be 7ac0 74bd 4040 48be 66f4 1d3e
00000060: 49e9 cbbd 4390 9fbc 053b 32be 84f1 b8bd
00000070: 42cb 573e b251 963e 5a7f 9ebd d272 323e
00000080: b4b7 cf3d 430e 893c 7a28 57be e0f2 3dbc
00000090: 04aa 28be 1540 4abf 2c6d 1bbf f6f0 723d
000000a0: e8c6 e2bc 5f98 833e 7c08 5c3d 518b f23d
000000b0: 8888 b0bd 6c5a 4c3e d4da 093f c95a d93c
000000c0: e96b b4be 949f 06be 9aa2 223e d8cb df3e
000000d0: ef9c 30be 9479 c0be 27ec a7be 71b6 d03d
000000e0: d70e ae3d 3962 c43e f44d 993e 30c8 7c3e
000000f0: 1fdd a8be e3a4 09be 79b6 173e 5226 21be
00000100: e01e 8e3d bec8 5a3e 57fb a7bc d365 95bd
00000110: 0481 e3be 5552 fa3e 2800 4d3d 6b92 b83e
00000120: acfd da3e 4219 f5be 002a 5bbe 338e 3c3d
00000130: 0ec1 0ebd e93c ee3d 6821 34be d978 903e
00000140: 6798 0c3e a5f6 cfbd d18c 313e 22b1 1d3e
00000150: c656 3f3e 23dc 6bbe 2512 fdbd 37e6 863b
00000160: f420 1abe 31a7 2fbb f073 a73d 27c0 dc3c
00000170: abab cc3d aa48 983c c00e 573e 7e92 cbbc
00000180: 479b 5ebd 74f8 d9bd 7f66 2abe eaac 103d
00000190: 3d1f 27bd 0af0 59bd e361 203e 4b64 4c3e
000001a0: 297d 9dbd e988 9cbe 9031 63be 2e45 14be
000001b0: eafa 183e 91dc 3c3c 29f2 483d ada0 a5bd
000001c0: 42df 183d 7685 16be 357c df3e 1581 8abd
000001d0: 37b3 9cbd 5a04 eabe 3c04 85be 754c 633e
000001e0: 7120 753c ae11 cabd f3ee 0dbd 73c1 97bb
000001f0: 6ddf 283e a527 96bf fb6b 803f 33d2 133e
00000200: d654 e9be 023d f53d 8daa 58bd 30a7 e1bd
00000210: c694 973d 9aaa 2abc 59cb 85be 9588 04be
00000220: 062f dbbe 887c 3f3e 8548 83be 5ecc 393f
00000230: f20f 9cbe fc76 753e ce2e 23be bb64 34be
00000240: 03b8 4fbd bf9a ae3e 17a7 0abe e1c5 e03d
00000250: d00c 7f3d 3cab df3d 127d abbe 9b4e 6a3e
00000260: ea1a 1f3d 9d66 0e3d 53f9 83bd 515f 683d
00000270: d5bf d33d 5bc9 cb3e 0484 c4be 5f5f a73e
00000280: 4b08 acbe 3d2d 32be 6c9a 9d3e b396 893d
00000290: ed6f 363e 5a05 aebe 6fe4 c7be 5e0d 013e
000002a0: ad6d 113d e135 b9be 78c5 42be dd69 6c3d
000002b0: 4005 d5be b2f6 8d3e 18ca f63d beb9 4b3d
000002c0: 91f3 753e fd15 093d 0878 1e3c c05c bf3e
000002d0: be0f dfbe 137a ebbe 9537 63bf 5f73 cfbd
000002e0: 8d77 ba3c ba03 8b3d 7530 c5bd 6843 1d3e
000002f0: 9cf5 1abe 5368 9bbd 8c94 dcbc 9cad 2dbe
00000300: 63ac 9fbe bf59 36be a770 febd c003 ba3e
00000310: 61b2 3abd 01e7 06bc 7434 d93e 8b00 b03e
00000320: c92c 023f ce63 adbe ed96 193e 2985 f03e
00000330: 9a61 033d f4f9 2abe 7a39 c4be 014c 98be
00000340: 90ee a73e 6a30 f8bd 275f 013d c20b 583e
00000350: 4676 c93d 8f01 f43e f98c 8c3e 017d 053f
00000360: 3711 1fbe 8963 dcbe 9224 e5bb b02c 1e3d
00000370: 14ca e0be 119e 383e 8e78 05bf 62e5 55be
00000380: 192f 07bf 2aeb 9ebd 11dc de3d ce88 803e
00000390: d075 a73e e593 e3b9 acfc cc3e c340 163e
000003a0: 8ca8 483e 6674 923e 5bd6 6e3d cae1 903e
000003b0: dfd4 bcbc fba9 6a3e 55f1 a13e cde6 8a3e
000003c0: d1d3 d83d 9756 dabd e9a9 bcbd b773 7b3c
000003d0: 1a8c fbbc 1d34 32bf bf2d b2be 7b73 ca3c
000003e0: 3c04 16be 2bbd c03e 9858 033e 11cb 4dbe
000003f0: e01d 1abe 48b2 04be 776d bebd 71b0 f3be

SpliceAI.res_layers.0.comboBlock.1.convlayer1.bias f4 [16]
0.009144165 -0.29287016 0.10994939 -0.10691676 -0.06413811 0.3560429 -0.22547923 0.020469658
0.20597571 -0.25978643 0.10885064 -0.2748234 -0.19089659 0.071436726 0.21623546 0.2337782
00000000: 68d1 153c 14f3 95be 252d e13d 2df7 dabd
00000010: d75a 83bd 414b b63e 07e4 66be fcaf a73c
00000020: 4ceb 523e ba02 85be 16ed de3d a7b5 8cbe
00000030: 657a 43be 6b4d 923d d46c 5d3e 8d63 6f3e
