Model_distilation/Results/Model_distilation_RESULTS/best_spliceformerlite_distillation.pt (torch, 365238 bytes, 141 tensors)

SpliceAI.conv_layer_1.weight f4 [16, 4, 1]
00000000: d889 df3e 3737 813d 8cd2 233e de01 3c3f
00000010: 0e1b 83bf 4cf4 8c3d 2c88 243b 999d dcbe
00000020: 61f2 0a3f 9f86 933e 6171 023f 339b c43e
00000030: ec0a bc3e 5b75 2bbf d297 0ebf 14eb 5bbe
00000040: 5abb 7e3e 499b afbe 7769 f6be f1af 88be
00000050: 19b1 18bf be66 65be 78c7 c63e 0327 0abf
00000060: 2e73 503d 4b40 aa3e 8bc3 30bf 55d2 23bf
00000070: 7239 d43e ab96 23bf 61ea b0bf 18f8 df3d
00000080: 04fc f3be be95 c23e 6d65 19be 9581 c6be
00000090: a0da d23e 4370 a43e 5686 813e 0203 e83e
000000a0: c0ea 813d d5bf 99be d77e 973e d843 56bf
000000b0: 0484 4f3f 39fe 4a3e feaf ab3d 7365 843e
000000c0: f67f 81bf 1d4d a8bf a9cf 2ebf 5d9b 4f3f
000000d0: 179a 723e a74b f03e f6f6 183f 88ad 3b3f
000000e0: 97ff 693e 6417 f03e 68a3 4d3f af44 5a3e
000000f0: c6e3 09bf e985 57be a396 963e 9af2 f6be
0.43659854 0.063093595 0.15998286 0.7344035 -1.0242631 0.068825334 0.0025105579 -0.43088987
0.5427609 0.28813645 0.5095425 0.38399658 0.36727083 -0.66975945 -0.5570041 -0.21476394
0.24876156 -0.3429816 -0.48127338 -0.26696733 -0.5964523 -0.22402474 0.38824058 -0.5396578
0.050891094 0.33252177 -0.69048375 -0.63992816 0.41450077 -0.63901776 -1.3821527 0.10935992
-0.4765321 0.3800487 -0.14980097 -0.38770738 0.41182423 0.321169 0.25297803 0.45314795
0.06343603 -0.3002917 0.2958896 -0.8369727 0.81060815 0.19823541 0.08383177 0.2585865
-1.0117176 -1.3148533 -0.68285614 0.8109644 0.23691593 0.46932718 0.5975183 0.7331166
0.22851406 0.46892846 0.80327463 0.21315263 -0.5386318 -0.21047176 0.29411802 -0.48231965

SpliceAI.conv_layer_1.bias f4 [16]
00000000: d05d a73e 6d2c 8cbe 3e92 723e 1eda c1be
00000010: fa6f 59be a2d8 94be 5c20 c1be 7dc8 20be
00000020: 7152 9ebe 2d2e 903e 92b6 c6be ade0 903e
00000030: b12e 8abe f305 8b3e c91f 5f3e eca2 7abe
0.3268876 -0.27377644 0.236886 -0.37861723 -0.21234122 -0.29071528 -0.3772 -0.1570148
-0.30922273 0.2816023 -0.38811165 0.28296414 -0.26988748 0.27152976 0.21789469 -0.24476212

SpliceAI.skip_layers.0.weight f4 [16, 16, 1]
00000000: 86c8 7dbe 63d2 b53e 602f ddbd 04a0 143e
00000010: a695 013e 7137 3b3e df2f 463e 7f44 813e
00000020: d28b 873e 67ec 193d f048 253e e178 29be
00000030: 58d8 8a3e 9f04 1ebe 8c19 ecbd c211 473e
00000040: 2eea cb3e d6a8 44be 356e 9a3e e805 b43d
00000050: b69c 1bbe feca 9dbc 68b0 89be ad53 0ebe
00000060: ec8d b6be b76c a9bd 605b 13bd 8893 503d
00000070: abe6 64be 98a8 9f3e 9677 8a3e 798f 00be
00000080: 1174 453f 4520 22bf b62e 163f caec 0cbf
00000090: c0a9 b9be a20c 23bf b830 0ebf e627 bfbe
000000a0: 2dbb 3bbf 8e88 093f 9c2a 0fbf c878 1c3f
000000b0: d13c 17bf 4b0d 1e3f 0eba f23e 25b6 0abf
000000c0: b43e 92be eec7 813e 4d77 be3c 8b92 f0bc
000000d0: f995 0b3e f8e3 88bd 5d58 bb3d 0b2f 743e
000000e0: 7925 923e 8ab4 823d 0e8d 91bd b325 f93c
000000f0: 9247 0e3e 061b 0f3d f896 f0ba 63c3 233d
00000100: 0f8f 83be b94e cc3d 433b 583d 3780 41bd
00000110: 7128 a73b 789f 21bd 3d99 ea3c f04b 2a3e
00000120: cec0 6f3d eed4 b53c 7ac1 bfbd 7cd3 fa3d
00000130: 53f6 b13d bda1 02bd 3870 aebd d7a5 3cbd
00000140: ee4c cabe 8481 923e 525b 74be ada8 ef3d
00000150: 52b1 fb3d 2ae6 1a3e 049c 833e fe91 803e
00000160: 543d e83e 8f0c 71bd 52f8 243e 9278 5dbe
00000170: eb26 d13e 0b10 5dbe 4416 05be a240 073e
00000180: 4a75 453b 8725 b93d 31b3 44bc c255 0b3d
00000190: 93c3 323e 7795 b13c 24e4 053e 5390 003d
000001a0: 827b eabc 41da 66be 8d60 89bd bcff 34be
000001b0: f7b0 ba3d 5336 50bc 1fad 13bd 8345 56bc
000001c0: ed8a 61be 78bf 383e 8dca 84bc 66c3 263e
000001d0: 40c9 803d b268 26bd 604f c7bc 1b0e 243e
000001e0: ced3 663e 4255 91bd 2b09 feba ef86 72bd
000001f0: 27e6 d43d 6035 d2ba b7d4 4fbc ecf9 2bbd
00000200: 807e e7be df0c ad3e 1314 86be 678e 1c3e
00000210: ffaf 303d 44ac 613e 5e12 753e 6a38 e03d
00000220: 5c4f ab3e 182f 0abb 96a4 943e 0d53 e8bd
00000230: b0fe 8f3e 2b02 28be f265 b0be 04e2 343e
00000240: b108 9dbe 3947 423d e35d 523c 7bed 833d
00000250: d47e b7bd dc0e 0b3e 51b0 053e dd92 0e3e
00000260: 309b 7b3e 6605 003e 8b47 cdbd 3dc4 01bd
00000270: a504 e83a 6fdb 2bbd 2f7f e73d 2482 fdbd
00000280: 99cf 653e db37 c7bd f9d8 1e3e 5320 a03d
00000290: 4a93 6ebc 4f8a 4ebc 76e0 66bd 2abb 653d
000002a0: 449e babe c161 e4bd 14ad 31bc 4a35 aebc
000002b0: 45cc b1bc 6218 323d d6e9 143d 1012 dabd
000002c0: 9200 dabd f56b 543e ae43 44be aac3 ddbd
000002d0: 94cb 1e3d 702a 4a3d 9ae6 68bc e907 1d3d
000002e0: b3b8 9f3e c541 553d e74f bfbd bef7 babd
000002f0: d1ec cc3d 97c1 dfbd a2f0 ebbd 84d0 e53d
00000300: 14cf 753d 7e8d 5dbd 0a6b 033e 72f6 b3bd
00000310: cf43 2a3d 0501 bebd 2f12 2cbe 1b24 25bd
00000320: 9832 ddbd 5838 c1bd 8428 bcbc 87fb a9bc
00000330: 2f4d c7bc 11c4 e43c ee12 c6bb 7266 99bc
00000340: 21ba d83e 79de f7be 7935 ac3e bca2 35be
00000350: 5d56 3dbe d3b8 c2be 9b14 50be 3171 7abe
00000360: 435f c4be a3f4 6b3e be21 31be 1a80 763e
00000370: 2aee b2be ef69 7a3e 784c 923e aec0 b9be
00000380: e40b 55be fb4c f33d c4a5 c5bb 1184 a43d
00000390: f0b6 f33d 6b2d 223c 0706 dabc a9e5 bd3d
000003a0: 1efa d13e 5860 e53d 2a24 1c3d 2f4f a9bd
000003b0: 5016 133e 8b5f 3ebe 3703 4fbe 20d7 cf3a
000003c0: b96d 8fbe a796 803e ede0 a3be 3bfa 493e
000003d0: ca89 2d3e cbb8 663e 1371 e03d 50b8 1b3e
000003e0: 75d6 883e e96a e1bd 2984 493e e62b 5fbe
000003f0: 0d0d 9b3e e199 bcbe 6c7c b8be 4fac 8e3e
-0.24783525 0.35512075 -0.10800052 0.14514166 0.12654743 0.18282868 0.19354199 0.2524757
0.26473862 0.037578966 0.16141105 -0.16550018 0.27118182 -0.1543145 -0.1152831 0.19440368
0.39827102 -0.19205031 0.30162206 0.08790189 -0.15196499 -0.019261833 -0.268924 -0.13899107
-0.35655153 -0.08272689 -0.035975814 0.050921947 -0.22353618 0.31183314 0.27044362 -0.1255473
0.7713023 -0.6333049 0.58665025 -0.5504881 -0.3626232 -0.6369115 -0.5554309 -0.37335128
-0.7333248 0.5372399 -0.5592439 0.611218 -0.59077173 0.61739033 0.47407573 -0.5418418
-0.28563464 0.25347847 0.023250246 -0.029366752 0.13631429 -0.066841066 0.09147713 0.2384607
0.28544214 0.06382091 -0.07106982 0.030413484 0.1389449 0.03493788 -0.0018355539 0.039981257
-0.25695083 0.09975953 0.05279089 -0.047241416 0.0051012565 -0.039458722 0.028637523 0.1663053
0.058533482 0.02219626 -0.093630746 0.12247369 0.08689561 -0.031892527 -0.08517498 -0.046056595
-0.39511818 0.28614438 -0.23862961 0.11702094 0.122896805 0.15126863 0.25704968 0.25111383
0.4535929 -0.058849867 0.16110352 -0.21628025 0.40850005 -0.21588151 -0.12996775 0.13208249
0.0030129724 0.09040361 -0.012005613 0.034017332 0.17457418 0.021677716 0.1307531 0.03138764
-0.028623346 -0.22544195 -0.06707869 -0.1767568 0.091157846 -0.012708264 -0.036053773 -0.013078096
-0.22025652 0.1804179 -0.016209865 0.16285476 0.062883854 -0.04062719 -0.024329841 0.16021006
0.22541735 -0.0709634 -0.0019381394 -0.059210714 0.103954606 -0.0016037636 -0.0126849925 -0.04198639
-0.452137 0.33798882 -0.2618719 0.15288697 0.043136593 0.2203837 0.23932788 0.1094826
0.33458984 -0.00210852 0.2903182 -0.11343966 0.28124 -0.16407077 -0.34452778 0.17664343
-0.30670694 0.047431204 0.012839767 0.0644178 -0.089597374 0.13579887 0.1305554 0.13923211
0.24570918 0.1250206 -0.10023411 -0.031681288 0.001770158 -0.041957315 0.11303555 -0.12378338
0.22442473 -0.097274505 0.15512456 0.07818665 -0.014561484 -0.0126062175 -0.056366406 0.056086697
-0.36448872 -0.111514576 -0.010844488 -0.021265645 -0.021703849 0.043480285 0.036355816 -0.106479764
-0.1064464 0.20744307 -0.19166443 -0.108283356 0.038768366 0.049356878 -0.014215136 0.03833762
0.31195602 0.052064676 -0.09341412 -0.09129284 0.10006107 -0.10925596 -0.115205064 0.11221412
0.06001194 -0.054090016 0.12833801 -0.0878724 0.041568574 -0.09277538 -0.16803811 -0.040317636
-0.108006656 -0.09434575 -0.022968538 -0.02074982 -0.024328796 0.027925523 -0.006044737 -0.018725608
0.42329505 -0.4841192 0.33634546 -0.1773786 -0.18489976 -0.38031635 -0.2032036 -0.24457242
-0.3835393 0.2304254 -0.17298028 0.24072304 -0.3494733 0.24454473 0.28573966 -0.36279815
-0.20805317 0.11879917 -0.0060317237 0.08033002 0.11900127 0.009898524 -0.026614202 0.0927232
0.41011137 0.11200017 0.038120426 -0.08267056 0.1436398 -0.18591134 -0.2021607 0.0015856959
-0.280134 0.2511494 -0.32007542 0.19724362 0.16947094 0.2253143 0.10959067 0.15207028
0.26726118 -0.110067196 0.19679321 -0.2179409 0.30283394 -0.3683615 -0.36032426 0.27865836

SpliceAI.skip_layers.0.bias f4 [16]
00000000: bbf3 28be 7c88 2ebd 9af6 033f cac5 48be
00000010: a540 943c 089b 51be 8b31 16bd ac90 fcbd
00000020: 35ed e4bd aee4 07be f7b8 c03d cf4e a33d
00000030: c662 42be 4d73 3e3e 2007 d1bd b5e7 703c
-0.16499226 -0.04261063 0.5154816 -0.196067 0.018097231 -0.20469296 -0.03666834 -0.123322815
-0.11178056 -0.13270828 0.09410279 0.07974016 -0.18982992 0.18598671 -0.10206437 0.014703681

SpliceAI.skip_layers.1.weight f4 [16, 16, 1]
00000000: d60d 2ebd b844 d43b f733 0b3e 26e6 48bd
00000010: 9d62 133d 4238 31bd e916 e7bb efb6 a93d
00000020: ed98 4abc 5e2e 133d c5dc 013e 77ca 86bd
00000030: 919a 8f3d 25b9 15bd b944 9a3c af11 0cbe
00000040: 80ec 1a3d 775f f93d 5a5e c2bc cd12 053d
00000050: f48d 2e3d 7b93 eebc 1a76 733c 834a b5bc
00000060: 5963 4a3d 59c1 bdbd 58a3 d8bd effa 4e3c
00000070: 753a 923b cc9d 6d3c 65ff e2bc a4e4 95bc
00000080: 12af 843a e7d2 ffba 4256 b93d 2158 d5bd
00000090: 67ae 95bc 1480 f3bb 661a fb3b db93 abbb
000000a0: 050d 95b8 4f15 823e 6f9c d6bb 0249 89bb
000000b0: cac0 d83a 8028 8e3c 6e87 ccbb af6b 5abe
000000c0: 8fa2 2ebe 90d7 afbe 6754 f6be 1fe9 7ebc
000000d0: 2fc2 633c ea68 933d 8927 123e 38d0 13be
000000e0: d7d2 c1bd 3b48 29bd a7df f33d efc3 98bd
000000f0: 6154 14be 6471 b23c cf4a cb3d a7f2 0abf
00000100: 8403 84bc b78b d43c ac5d 7b3d b4be 023e
00000110: e764 5f3d 72f0 e7bc 2e4f 7abc a4aa 14bc
00000120: 2824 d93c d474 983d 3c3c 953c dc6b 1cbc
00000130: 45be dcbb 7536 eb3d 3adb febc a634 a83d
00000140: 79e0 473d ebf9 afbb dcbf 6f3e cce7 473d
00000150: 18c5 ee3a c3ed 00bd 7316 98bc 52d2 8abd
00000160: 538c 92be dbbc c73d 1e42 24be 9797 4a3c
00000170: 601f bfbd dc20 ca3d 2eba 193c 2659 ccbd
00000180: 1b28 aabd 896c b23c 1859 ce3c 1337 ff3c
00000190: a042 7b3d c427 223c 8811 1cbc d455 173c
000001a0: 7bb0 70bd 289f 0ebd c6d0 e73c 99cb 52bd
000001b0: a6e7 29ba 95a6 6b3d 1db8 233d 6734 15be
000001c0: 5c45 23be f752 6ebd e6c9 05be d500 1cbd
000001d0: fc24 5f3d 71b4 343d a84e a23c 579b 02bd
000001e0: c11b 38bd a28c 8fbd 7fd2 db3d c4a3 afbd
000001f0: 4ecc 16bc 5be4 e83c a740 893d 766b 99be
00000200: 4ee4 11be cc33 923d 7958 6a3e 35a6 f2bd
00000210: c785 a53d edaf 333d 635d 32bc 59e8 3abd
00000220: b3ca 4b3c f8cd a93b 3f15 d13d ee85 08bd
00000230: 7b37 9a3d 2b4f 893d 4124 1c3d 7f7e 183e
00000240: f08c 36bd 1e50 c33d 3776 c93b a7eb 2d3d
00000250: 055a c53d c6c5 13bc 3871 d9bc 8687 a73d
00000260: bfbd 9fbd 8db7 95bc bffc 64bd 41f1 47bd
00000270: b92f 8e3d a85b b93a 5763 bc3d fe72 37be
00000280: c38e f63c d22e d9bc a963 6b3c 0ff4 42bd
00000290: a48f 233e 31f1 42bc 6776 0b3d f7b2 6ebd
000002a0: b739 c9bc eb0c 1c3d 3eba c4bc 1963 5c3e
000002b0: 1ff3 2abc 5afd 953d ef53 66bd a42d 5b3d
000002c0: 01a7 8b3d ba72 99bd 1e14 143e 6193 813d
000002d0: dd4d 3c3d df4e cf3c 8118 a43c 9aab f33c
000002e0: 47b5 853c eeff c33d f849 813d 5de8 4bbd
000002f0: cf4d aebd 6ed0 5c3d 4392 493d 95cb 253e
00000300: e125 dc3c da3c bbbc 8a16 833d 419f e43d
00000310: 159c cf3c ceb7 093b e22e a33c f5a2 023c
00000320: 3941 c8bc fd12 8abd facf c9bd cb9b 213c
00000330: 228c 8c3b dec5 093d e5fe 7abc 9714 24be
00000340: d18f e836 08a1 64be 69a7 d2be 8eb8 e0bd
00000350: a6f4 1c3d 4a1a 593b eb19 8fbd 2441 e43d
00000360: b22c 863d cd35 08bd 972e b53d e986 003d
00000370: b551 0cbe 93b0 ecbd cf09 883b 1ddd b4bd
00000380: 08df b6bb 764c 6a3b 572e be3d e490 d23c
00000390: 7d0e 113d a955 57bc f607 8cbc 08e6 83bc
000003a0: e9d9 87bd ac86 463c 78f7 28bd cfcb 25bc
000003b0: bfa9 8abc 9e92 703d 1d9c fa3c 9876 69bd
000003c0: 1604 de3d b280 8f3d 54f1 993e b3b5 9bbb
000003d0: 2ecc 773d 63c4 aabc 216f 03bd 8252 a33c
000003e0: 1c59 ebba a6b6 023e d3dc cabc 1da6 173d
000003f0: 7740 a53c ae1d 253d 94cd a9bc f418 8e3e
-0.042493664 0.0064779185 0.13594042 -0.04904761 0.035982717 -0.043266542 -0.0070522917 0.08286845
-0.012365562 0.03593289 0.12681873 -0.06581586 0.07011903 -0.03655352 0.018831598 -0.13678621
0.0378232 0.121764116 -0.023726631 0.032488633 0.042615846 -0.029123059 0.014859701 -0.022130257
0.04941115 -0.09265394 -0.1057803 0.012633069 0.004462535 0.014502954 -0.027709672 -0.0182975
0.0010122976 -0.001951781 0.090496555 -0.104172 -0.018271638 -0.0074310396 0.007663059 -0.0052361316
-7.107299e-05 0.25406882 -0.00654941 -0.0041896114 0.0016536948 0.017353296 -0.0062417304 -0.2133014
-0.17054199 -0.3434415 -0.4811127 -0.01555851 0.013901277 0.07197745 0.14272894 -0.14434898
-0.09464043 -0.04132865 0.11907893 -0.07459246 -0.14485313 0.021782584 0.09926378 -0.5427651
-0.016114958 0.025945527 0.06136863 0.1276806 0.054539587 -0.028312895 -0.015277667 -0.009073887
0.026506498 0.07444158 0.018217199 -0.0095472 -0.006736549 0.11484996 -0.031110395 0.08213167
0.04879806 -0.0053703687 0.23413032 0.048805043 0.0018216697 -0.031476747 -0.018565392 -0.06778397
-0.28622684 0.09752818 -0.16040847 0.012365243 -0.09332156 0.09869549 0.009382768 -0.09977941
-0.08308431 0.02178027 0.025188968 0.031154191 0.061342835 0.009897176 -0.009525664 0.009236772
-0.058762055 -0.034819752 0.028297793 -0.051463697 -0.00064813567 0.057531912 0.039970506 -0.14570771
-0.15944427 -0.05818459 -0.130653 -0.03808673 0.05447863 0.044117395 0.019812897 -0.031886425
-0.044948343 -0.070092455 0.10733508 -0.08576158 -0.0092039835 0.0284292 0.067017846 -0.299648
-0.14247248 0.07138786 0.22885312 -0.11848108 0.08082157 0.043868948 -0.010886523 -0.04563174
0.012438464 0.005182024 0.102091305 -0.03333085 0.07530113 0.06704553 0.038120512 0.14892004
-0.044568002 0.095367655 0.0061481255 0.042461064 0.096363105 -0.009019321 -0.026543245 0.08180146
-0.07799863 -0.018276 -0.0559051 -0.048814062 0.06942696 0.0014141696 0.09198635 -0.1791496
0.030097371 -0.026511583 0.014367023 -0.047596034 0.15972763 -0.011898325 0.034048464 -0.058276143
-0.024563653 0.038098257 -0.024014588 0.21522178 -0.010433941 0.073237136 -0.05623239 0.053510323
0.06818963 -0.074925855 0.14460799 0.063269384 0.045972694 0.025306163 0.020031216 0.029744912
0.016321791 0.09570299 0.063129365 -0.049782146 -0.085109346 0.05390971 0.04921175 0.16190942
0.02687353 -0.022856165 0.06400783 0.11163188 0.02534298 0.0021014097 0.019919816 0.007973422
-0.024445163 -0.06741903 -0.098541215 0.009863804 0.004289166 0.033635966 -0.015319561 -0.1602348
6.930881e-06 -0.22327054 -0.4114335 -0.10972701 0.038319252 0.0033127242 -0.06987365 0.11145237
0.06551494 -0.033254433 0.08846777 0.03137866 -0.13703044 -0.11557116 0.00415156 -0.088312365
-0.0055807866 0.003575114 0.092861824 0.025703855 0.035414208 -0.013142982 -0.01709364 -0.016100898
-0.0663336 0.012117069 -0.04125163 -0.010119393 -0.016926644 0.058733575 0.030592019 -0.056997865
0.10840623 0.070069686 0.3006693 -0.004751885 0.060497455 -0.020845598 -0.032088403 0.019936804
-0.0017955634 0.12764987 -0.0247635 0.037023652 0.02017234 0.040311508 -0.02072791 0.27753413

SpliceAI.skip_layers.1.bias f4 [16]
00000000: bbf3 28be 7c88 2ebd 9af6 033f cac5 48be
00000010: a540 943c 089b 51be 8b31 16bd ac90 fcbd
00000020: 35ed e4bd aee4 07be f7b8 c03d cf4e a33d
00000030: c662 42be 4d73 3e3e 2007 d1bd b5e7 703c
-0.16499226 -0.04261063 0.5154816 -0.196067 0.018097231 -0.20469296 -0.03666834 -0.123322815
-0.11178056 -0.13270828 0.09410279 0.07974016 -0.18982992 0.18598671 -0.10206437 0.014703681

SpliceAI.skip_layers.2.weight f4 [16, 16, 1]
00000000: 678b 06bd b5f0 873d 474e 48bd 0046 493d
00000010: 3ddd 543c 5aa5 0b3b e709 c53c 7056 523c
00000020: a308 c0bc 4cdf ae3b ee0a 39bb d030 983d
00000030: 1612 913b b93e a23d 031d 2e3d a321 b23c
00000040: d031 143c 8fcf 3bbd 9ad3 2f3d 3626 37bd
00000050: 5c7d 5e3b 53bd 303d 6011 8d3c e76c c03b
00000060: 6c99 56bb 27da d9bc 503e 063c 641e 1f3c
00000070: c34e 603b f785 fdbc cb7f 993b 3ea5 74ba
00000080: 954c ad3a 6693 d4ba 85d3 d73b 6a65 193e
00000090: 55e5 a23a c1dd 6f3b 738b d4ba 8b3e 123b
000000a0: 9f46 f9ba e5fc d4bb 59a6 b23a 9e9b 583a
000000b0: 62ef 4d3a cc53 783a e77a 49ba 2537 dcbd
000000c0: 3ac7 1b3c 04f7 b13d 4db7 40bc 3468 50bd
000000d0: 8279 153e 98b0 fabd 0572 e6bd 5d69 863d
000000e0: ca64 eebb 8516 8abc 9d40 c73d eadc c3bd
000000f0: 0b25 8a3d abb8 c1ba 04a9 85bd 8e95 28be
00000100: 79eb 31bd ddd0 36bd f527 203c d33f 84bc
00000110: 967e 52bc c804 d4bc 4df8 ba3c 2735 70bc
00000120: 52ab eabc 658f d63c e1ce 343c 3b04 193d
00000130: 2e09 bd3c 6a94 30bd 3ac4 94bc 619c 89bc
00000140: 1a45 d3bc a28a 65bd f040 0dbd 08a2 733d
00000150: c5ae 5e3b f6c5 fb3c 1183 c33b 4a62 7c3d
00000160: 70e8 ab3d 80fb 0dbd fad5 59bd 21d0 4abd
00000170: ea77 003d 2f3a 5a3d ddbc c3ba 775d a13d
00000180: 1d1b 003d 6f31 42bc 9d70 82bc 0b3c 41bb
00000190: 106f 34bc aea5 9fbd 31b6 3e3c ca27 03ba
000001a0: e113 7abc 999f 163c ef9d a2bc ba96 a73d
000001b0: 8449 3fbc 5a4a 363c 2457 2c3c c42e f8bc
000001c0: 3c20 673d 05b8 0e3c db78 00bd e989 2bbb
000001d0: 3d83 003d 8f8f f8bd ff2c 60bc 317c b03c
000001e0: 6293 ecbc e5f0 7a3c 9222 67bc e5d4 8d3d
000001f0: 5fe7 13bc d77a 563c b06c f8bb 8c5b 9fbd
00000200: 5bca 1c3e 5d1e 573c 9665 2fbd e3eb fa3d
00000210: 4255 9c3d 1a94 4ebe f7ae 8ebc 282c 403d
00000220: 5542 0bbd 75db aa3c 6c2f 7bbd 9d3f 863d
00000230: ecfd 02bd cee3 493d 1c9d c03c a039 abbd
00000240: 09cf 8f3d 247e a7bd 2e03 653c 4274 313c
00000250: 4bfd 903c cfaa 753d 1cc5 913c df03 31bc
00000260: 1db8 9cba f626 2cbc df4e b2bc 76fd 35bd
00000270: 6a4a 0cbd c687 16bc 4ebb 8bbd 7ed0 073d
00000280: 8004 1dbd 8bec 763d 36a6 563c f1e8 46bd
00000290: 5e56 18bd 0271 f4bc 6432 d93c 887f 643d
000002a0: a2d9 293d f850 bcbc a1a4 7e3c 875e f2bd
000002b0: 88b2 853d c5ba 163d fdc7 893d 59f9 c33b
000002c0: a13e 2bbd 67cb 40bd ef83 3dbc f105 00bc
000002d0: bbaa fa3c 27b0 96bd a4a8 9ebc 53e3 04bd
000002e0: c870 3abd bce5 bc3c add2 08bd 31dd 643d
000002f0: a35c cb3c a0a4 d2bd 062b 3a3d 2e5f 04bd
00000300: e840 173d 7ebc 1f3c a492 a53b 458a 81bc
00000310: a1f3 6f3b b57a 383d a9cb 0abd 6d9d 45bd
00000320: f969 d53c fdf1 903d 58e3 5b3c f82a 05bd
00000330: 78a2 1bbc 8ad5 47bd 8804 d7bb 5477 043d
00000340: a158 30bd 6333 9abd 5d6d c6be 170f 0ebe
00000350: a3e4 82bd 64ff c03c d832 fd3d 9e31 d1bd
00000360: aebe 813d 0879 9abd 7879 5cbd 9430 233d
00000370: 61d8 63bc 1e55 f9bd c3e8 b43d a58a 14bd
00000380: a015 d93b c113 f1bc 748f 17bd a619 fb3c
00000390: b2de cd3b 1728 30bb 9637 173c d71e bf3c
000003a0: 952b 4d3c 7a47 363c 866b b6bc 15ca 61bb
000003b0: b027 a23b 9212 a8ba 72d5 08ba fd1c 153c
000003c0: 5271 9bbc 5127 e53c 0b48 213b 7a40 e43d
000003d0: 5bd3 e73c 05e5 783c e021 b73c 41b1 e63c
000003e0: 98b7 2d3c c0a1 84bc 9d9f 35bc cbc2 5abd
000003f0: b1ff 813c 9b3b 9c3c 90a3 f03c 2fa4 b93c
-0.03284779 0.06637708 -0.048902776 0.049139023 0.0129922 0.0021308274 0.024052573 0.012837991
-0.023441618 0.0053366777 -0.0028235274 0.07431185 0.004427205 0.0792212 0.042508136 0.021744555
0.009045079 -0.04585224 0.04292641 -0.044714175 0.0033949232 0.043149304 0.0172202 0.005872357
-0.0032745255 -0.026593281 0.008193567 0.0097118355 0.0034226633 -0.030947668 0.0046844236 -0.00093324843
0.0013221676 -0.0016218245 0.0065864944 0.14980093 0.0012427965 0.0036600681 -0.0016215876 0.002231511
-0.0019018239 -0.006499874 0.0013629898 0.0008262935 0.00078558 0.0009472936 -0.00076858554 -0.107527055
0.0095079485 0.086896926 -0.011762452 -0.050880626 0.14597133 -0.12240714 -0.11252216 0.06563065
-0.0072751986 -0.016856441 0.09729121 -0.095636204 0.06745347 -0.0014779767 -0.06526378 -0.164633
-0.043437455 -0.04463278 0.0097751515 -0.016143715 -0.012847563 -0.025881186 0.022823477 -0.01466111
-0.028646145 0.026191423 0.011035652 0.03735755 0.023075666 -0.04311029 -0.018159974 -0.0167982
-0.025789786 -0.056040414 -0.034485757 0.059480697 0.0033978682 0.030734044 0.005966552 0.061617173
0.08393943 -0.034663677 -0.05318258 -0.049514893 0.03136436 0.053278144 -0.0014933605 0.07879155
0.031275857 -0.011852606 -0.015922839 -0.0029485251 -0.0110128075 -0.07795273 0.0116401175 -0.00050031825
-0.015263529 0.0091933245 -0.0198507 0.08183046 -0.011675242 0.011126125 0.010518823 -0.030295737
0.056427225 0.008710866 -0.031365257 -0.002617473 0.03137516 -0.12136757 -0.013682603 0.021543594
-0.028878871 0.015316223 -0.014107363 0.06925372 -0.009027331 0.013090811 -0.007581316 -0.07781133
0.15311567 0.013129798 -0.04282149 0.12252023 0.07633449 -0.20173684 -0.017417414 0.04691711
-0.033998806 0.020856598 -0.061324522 0.06555102 -0.03198044 0.049289517 0.023512416 -0.083606005
0.07021911 -0.08178356 0.013977809 0.010830941 0.017698904 0.05997735 0.017794184 -0.010804146
-0.0011956726 -0.010507336 -0.021766124 -0.044431172 -0.034250654 -0.009187644 -0.06822835 0.033157818
-0.03833437 0.06028418 0.013101151 -0.048561994 -0.03719174 -0.029839043 0.026513286 0.055785686
0.041467316 -0.022987828 0.01554218 -0.11834436 0.06528193 0.03679921 0.06727598 0.0059806523
-0.041807774 -0.04706898 -0.0115671 -0.007813917 0.030598989 -0.07357817 -0.019367523 -0.032443356
-0.045517713 0.023058765 -0.03340404 0.055875007 0.024824446 -0.10285306 0.045451187 -0.032317333
0.036927134 0.00974953 0.0050528813 -0.015813002 0.003661372 0.045038898 -0.03388563 -0.048245836
0.026051508 0.070774056 0.013420902 -0.03251168 -0.009499185 -0.04878763 -0.0065618195 0.032340363
-0.043053273 -0.075293325 -0.38755313 -0.13872944 -0.06391265 0.02355928 0.12363213 -0.10214542
0.063351974 -0.07542616 -0.05382678 0.03984125 -0.013906569 -0.12174438 0.08833458 -0.036265034
0.0066248924 -0.029428365 -0.037002042 0.030651879 0.006282651 -0.0026879364 0.009229561 0.023330135
0.012522598 0.01112544 -0.022268068 -0.0034452726 0.004948579 -0.0012822917 -0.0005219794 0.00910115
-0.018974934 0.02797285 0.0024609591 0.111451104 0.028299024 0.015191321 0.02235502 0.028160693
0.010602854 -0.01619041 -0.011085418 -0.053408425 0.015868993 0.01907139 0.029374868 0.022661297

SpliceAI.skip_layers.2.bias f4 [16]
00000000: bbf3 28be 7c88 2ebd 9af6 033f cac5 48be
00000010: a540 943c 089b 51be 8b31 16bd ac90 fcbd
00000020: 35ed e4bd aee4 07be f7b8 c03d cf4e a33d
00000030: c662 42be 4d73 3e3e 2007 d1bd b5e7 703c
-0.16499226 -0.04261063 0.5154816 -0.196067 0.018097231 -0.20469296 -0.03666834 -0.123322815
-0.11178056 -0.13270828 0.09410279 0.07974016 -0.18982992 0.18598671 -0.10206437 0.014703681

SpliceAI.res_layers.0.comboBlock.0.convlayer1.weight f4 [16, 16, 11]
00000000: 4695 09be 3f93 a9bd 7b06 ba3e b10a 2dbf
00000010: 9e8b e8be 7009 b13d c32b a7be 30a1 25be
00000020: b82e 99bd 6610 87be 3db8 40be 4fec d5bc
00000030: ce48 48bc b1ba 21bd 3b87 c13f e7dd 47be
00000040: f347 013d f403 8f3c ea84 3e3c c988 623e
00000050: c342 2abd fef3 f03d 0dba 1e3d 5a0f a03d
00000060: caf0 8dbe 0770 9bbe 4193 463e 68b3 1bbd
00000070: 46f7 0f3d 9d1e 98bd efb7 43be ac8b fabd
00000080: 2cb8 54be bc67 24bd 5705 be3d 4d55 8e3c
00000090: f94a febf add0 083f 0add a83e 8604 f7bd
000000a0: 0fb0 cb3d c27e 9d3d 34ce a23d 2f25 2c3d
000000b0: 4d7b f9bc 082a 993d 8f0e ff3b e193 ffbf
000000c0: a950 f43e 55d8 8c3e 847b a6bd 176b 963d
000000d0: 4032 3d3d 1c59 a23d e727 763d b6a0 fa3b
000000e0: 19c0 ca3d b8b7 efbd cfc4 703e a0aa 35be
000000f0: 8a90 82be 3954 933d ef03 ae3d 11d4 8b3d
00000100: 0143 cc3c 0f29 d33c 362c f1bd f34f bdbd
00000110: da8c f2bd d0bd 0a3f 790c 2c3e bbcf f63d
00000120: c75f ffbd 6a33 45bd 75b0 21bd 29d2 96bd
00000130: 3f9c aabd d034 9f3c 220d 1c3e d210 d43e
00000140: a92b e3bf f9e8 d93e 236c ed3e be2b d6bd
00000150: a75e 083e 1cdd 393e f87a c43d fb0f 9f3d
00000160: b435 73bc 4d81 4fbd 2cd9 92bd d79d 933f
00000170: a989 8bbd 0a65 083e c8a6 b23c 369b 42bd
00000180: 142d d13d 56bc fcbb ceb1 a03d 51cb a73e
00000190: 2359 c53e f5ff 523e bb82 f8bd 9050 063e
000001a0: a033 313e 9734 de3e d40a 993e 714c 9c3e
000001b0: 2048 c33e 76c9 793d b7f0 a3bc e4a4 0b3c
000001c0: 6b8e a2be 373f cfbd b134 373e d3ab 85be
000001d0: 5003 053d a3b2 893c 3abe 93bd 1550 233d
000001e0: 4f39 6dbb c02e 63be 35b9 3c3c 727f 5abe
000001f0: 7c77 12c0 cee6 d13e 8054 0b3e 7182 9abe
00000200: a47f 08be 6306 ffbd 41a9 53be 6214 4cbe
00000210: d55f 153d 444b 603d cdd6 0f3f 47a2 fcbe
00000220: e0cb 04bf 459d 2b3e 3704 0fbd 3ae0 b73d
00000230: 02b4 fa3d 2661 813d 76a5 c83d 1e83 173e
00000240: 4867 e8bd b551 a73e 0523 98be da09 f8be
00000250: e453 333b b4d3 27be 13ec 65bd c0d6 94bd
00000260: 2a7f 3bbe deda 8bbd c30e d2ba fc6f fabb
00000270: acb3 6fbe 30db 843e ea7e f2bd ace9 d4be
00000280: df7e 883d d6ce 91bb 4373 dbbd 110d ccbd
00000290: 5e6f e4bd d8ea 533c e181 d23d 6dac a0bd
000002a0: 22ec 833e deff 05be 1c09 4bbe 0603 da3d
000002b0: ff98 eb3d 17ee 053e 6088 733d 95c7 e53d
000002c0: 2ecd 2e3d 18ee 3abe c816 b3bd 7b9b d5be
000002d0: e3cc 403e 23aa a8bf 8da0 91bd 73b9 66be
000002e0: 7722 50be cf06 8dbe 4991 cabe f42a 243e
000002f0: 4497 20bb 95e8 bcbd 9b83 6d3e 02d3 27be
00000300: 0c58 233f 0b64 adbf c055 8c3e 2ac6 763d
00000310: 96b1 423d 85b3 843d 0c9e c63d e920 e63d
00000320: de15 163e 317b 423e 19e3 88be dbc3 523f
00000330: 9eb0 04bd cc7b 7cbd e530 0cbd 43c3 53bd
00000340: 7c22 fbbd 4f08 ef3c 323f 8a3d e4d9 ae3d
00000350: a719 343e ef94 6ebe 0d09 0f3f fda8 443f
00000360: d569 84bd 4fdb 86bd 8225 163e 0795 ff3d
00000370: 2f37 7a3a 7b1e 633c ba8b d23c 2340 123e
00000380: 26e7 a2be 4785 ef3e 9576 1d3f d661 05be
00000390: b7e9 0fbe 0b35 a33d ad9f 1f3d b26f 523c
000003a0: f290 66bd ee8b 3bbd fc69 19bc 1729 58be
000003b0: 5777 333f e827 9dbf a59f 713d 97ec e5bd
000003c0: fb0b 88bc f53a f93b 573e e6bc 530f 0a3e
000003d0: 5bf1 a8bd d4c7 503e 1504 8fbe e986 0d3e
000003e0: 4bbe ab3c 2443 d63c e236 1dbd b791 80bd
000003f0: cf82 6ebc 7edb 123e d550 0c3e ecc4 e13d
-0.1343585 -0.08280038 0.3633307 -0.6759444 -0.4541902 0.08644378 -0.32650575 -0.1617477
-0.07479614 -0.263797 -0.18820281 -0.026113657 -0.012224389 -0.039484683 1.5119394 -0.19518243
0.031562757 0.01745794 0.011628369 0.22122492 -0.041567575 0.11765288 0.03875165 0.07815428
-0.2772277 -0.30358908 0.1939211 -0.038012892 0.035147928 -0.07427714 -0.19113134 -0.122336715
-0.20773381 -0.04013799 0.09278362 0.017374659 -1.986663 0.53443414 0.3298114 -0.1206141
0.0994569 0.07690193 0.079494864 0.04202765 -0.030454302 0.0747872 0.007783718 -1.9967004
0.4771779 0.27508798 -0.081290275 0.073446445 0.0461905 0.079271525 0.060096648 0.007648553
0.09899921 -0.117049634 0.23512577 -0.1774087 -0.255009 0.071937986 0.08496844 0.06827558
0.024934294 0.025776414 -0.11776011 -0.09243765 -0.118432716 0.5419588 0.16801633 0.1205134
-0.1246944 -0.048144735 -0.039474923 -0.073643036 -0.08330583 0.019434363 0.15239385 0.41419083
-1.7747699 0.42560557 0.46371564 -0.10457562 0.13317357 0.18150753 0.09593767 0.0776672
-0.014844347 -0.05066042 -0.071703285 1.1532544 -0.06813366 0.13319793 0.021808043 -0.047511302
0.10213676 -0.007712881 0.078464136 0.32772306 0.38544568 0.20605452 -0.1213431 0.1311667
0.1730485 0.43399498 0.29891074 0.3052707 0.38140965 0.060983144 -0.020012243 0.0085232
-0.3174928 -0.10119479 0.17891194 -0.26107654 0.032473862 0.016808813 -0.07214017 0.039871294
-0.0036197489 -0.22185802 0.011518766 -0.21337679 -2.2885427 0.40996403 0.13606453 -0.30177644
-0.13329941 -0.1245239 -0.20670034 -0.1992965 0.036468346 0.05475928 0.56187135 -0.49342558
-0.5187359 0.16759212 -0.03491613 0.08978315 0.12241365 0.06317358 0.09797184 0.14796111
-0.11347824 0.32679525 -0.29714218 -0.48445016 0.0027363235 -0.16389352 -0.05613334 -0.07267523
-0.18310228 -0.06828855 -0.0016026128 -0.007642744 -0.23408383 0.25948477 -0.11840613 -0.41584527
0.06664824 -0.0044497056 -0.10715344 -0.0996343 -0.11154054 0.012934409 0.10278679 -0.078453876
0.25766093 -0.13085887 -0.19827694 0.10645108 0.11503791 0.13079105 0.05945623 0.11219708
0.042676143 -0.18254888 -0.087445796 -0.41720185 0.18828158 -1.3176922 -0.07110701 -0.22531681
-0.20325647 -0.27544257 -0.3956397 0.1603201 -0.0024504224 -0.09224049 0.23194735 -0.16389087
0.63806224 -1.3546156 0.27409172 0.060247578 0.04753264 0.06479553 0.09698114 0.11236746
0.14656779 0.18992306 -0.26735762 0.823301 -0.032394998 -0.0616415 -0.034226317 -0.051699888
-0.12262437 0.029178767 0.06750335 0.08537653 0.1758791 -0.23299001 0.55873185 0.76820356
-0.06465498 -0.065847985 0.14662746 0.124795966 0.0009544966 0.013862248 0.025701392 0.14282279
-0.31816977 0.4678137 0.61509067 -0.13025603 -0.14053999 0.079691015 0.038970638 0.012844013
-0.056290574 -0.045787744 -0.009363648 -0.21109425 0.70103973 -1.2277803 0.05899014 -0.112267666
-0.016607275 0.007605905 -0.028105898 0.13482408 -0.0824916 0.20388728 -0.27932802 0.13820995
0.020964762 0.026155062 -0.03838242 -0.06277793 -0.014557554 0.14341542 0.1370271 0.11023888

SpliceAI.res_layers.0.comboBlock.0.convlayer1.bias f4 [16]
00000000: e250 af3d ed06 02bf aadc 8b3e 597f 48bd
00000010: a7d8 343c f46b 1c3e 9384 fdbe 980c efbe
00000020: 774b 843e 703d 033d eb73 353e 01e1 3b3e
00000030: 7dbc 40bd a8ea 87be 6f00 413e b0fd 1d3e
0.08560349 -0.5079182 0.2731679 -0.048949573 0.011037982 0.15275556 -0.4951521 -0.46689296
0.25838825 0.032041013 0.1772 0.18347551 -0.047054756 -0.26546216 0.18847822 0.15428805

SpliceAI.res_layers.0.comboBlock.0.convlayer2.weight f4 [16, 16, 11]
00000000: b6eb e5bd c166 b1ba d686 263e 75bd 453e
00000010: 7a86 4cbf ba6b 34bf 69ad 183e da4c 80be
00000020: 9745 4c3e 56af 023e 0b5a d93d 6607 343e
00000030: ff6e 0abe 34d6 123e e209 ffbc 4aec b83d
00000040: 5e8e c63d ef63 183e 50c4 86bd 3af6 d4bd
00000050: 9c5e 62bd 5b52 88bd ef3a 223d baff edbb
00000060: f685 f43c 76e1 723e 42a2 aabd 7750 9ebe
00000070: a2d3 543e 23bc 79be c556 05bf d5f3 9c3d
00000080: faf6 c7bd a2cb 31be b343 63bd acf4 933b
00000090: 0d8a bfbe 14bb d43d cf36 27be 0b2d a5be
000000a0: ed92 eabd 8245 7cbd 961a 02be b872 89bd
000000b0: 2349 dd3e 7cd0 c13e 4f18 93be 7ded 023d
000000c0: de9a 0f3f 0412 b63d 072c 803d 05b3 87bd
000000d0: 7d4d 99bd d10f e5bd c50b 383d 4566 a4bd
000000e0: 8826 1d3e 6444 523c 9872 403e 6e08 15be
000000f0: 6246 ce3d 57fa 943e 7d21 b93d 3cb3 a43d
00000100: 847a 493d 9235 d7bd 2ee8 dd3d 56b4 dbbc
00000110: da46 e23d 0646 c83d 2d3c 89bc 9f73 b33e
00000120: eafa cb3e 87ea 05be 3ed2 043d 1bfc 7a3b
00000130: 9de0 96bd ef3d 83be 4382 19bf 3d65 9d3e
00000140: 61b6 66be 82b4 873c 2d52 5c3e 02f2 513e
00000150: f581 c63b 7955 033e 3dd9 e03d b9f2 a7bd
00000160: 7610 383d dda2 563e 6e72 913b 5894 5a3e
00000170: e79f f13e 588c 053d ce4a f4be 1b9a 30bf
00000180: 34da dd3c db01 193e 8203 7bbd 0d0e 53bc
00000190: b446 983a e9a1 883d baf5 09be 93dd 5bbe
000001a0: e28d 243e 98a0 013e 9346 703b 2e08 f9bd
000001b0: ac21 513b 9b43 2ebe 6279 11bd a783 583e
000001c0: 8661 7dbd f76d 433e fe37 d2be 5212 dabc
000001d0: 60fb 713d 8bc7 b2bd e208 b7bd 413b 9e3d
000001e0: 6d9d 733d c479 e2bd c390 f23e 4dc5 b03e
000001f0: 0e4f c23d d58d 28bf f178 183d 6486 a5be
00000200: 8324 32be 9b26 25be abe8 023d 1178 1d3e
00000210: 1e89 1dbf 6ab2 8a3e 315f 863e 7e8b 6c3c
00000220: bc72 2f3e 8787 4c3e 29d2 753b 568d b23d
00000230: 53fe 273d aa8c 02bd f0ef 7339 7241 d5be
00000240: 137f 29be 3337 193f 10c8 86be 72f3 a8bd
00000250: ca18 50be 43a1 e7bc 3ee5 273e ba6a 3b3e
00000260: eb9d 923d 2f24 c83d c60b 083d a248 503d
00000270: a94f a0be b358 ddbe 9b5c 173e 5163 43be
00000280: 65db 313f fcff 75bc 7deb 2d3c bbd2 8fbd
00000290: 71d9 9d3d e9a7 0f3f 28e3 0a3f 45f4 00bf
000002a0: b97f 34be feec a73e d14b 8e3e cea4 5d3d
000002b0: 097c 993c 0b85 b63a 677d 88bc 9ce1 cb3c
000002c0: fa1b dfbd 111d 063d 65b1 95be be2a c6bd
000002d0: e3a0 bfbd aa88 36be 56e2 103e ab07 643f
000002e0: 799f 123f 4940 8e3d 5296 b03e 4994 663e
000002f0: 9436 3a3e 3939 2b3d 3121 4c3f 9756 8fbe
00000300: a8e9 c9be db79 c53d d5dc 1dbe 6b32 f53d
00000310: c114 0bbe dfcc a33d 76cf f2bd 5da4 003e
00000320: 988f 8bb9 9c22 afbd d489 79be 725a 643d
00000330: f76c d43e bd24 963e 1a05 5abe b654 0bbf
00000340: 4b15 46be a7c1 3fbe cc22 05be 4e69 a4be
00000350: 5b46 babd 6890 8bbe 3e1a d6be dfe0 86be
00000360: 4852 5abe 766a 703c 6011 0c3f 368b 4a3e
00000370: 95ab c1be 8eba 00be ea38 43bd 9bca 943e
00000380: b3c9 24bb 4cb2 41be 2399 343d a502 2dbe
00000390: 6580 87bd 26e0 c7be 3078 b1be 0ac0 02be
000003a0: 5190 803d 221b 3fbe 6a4c 90be 3f92 8abe
000003b0: dbde a1be 7b8f 6d3d bd88 233f db5e 953d
000003c0: 62e6 933d 41b5 97bd 2767 28be 82a5 0bbe
000003d0: c1d5 c2bc 7928 6b3c 7088 99bd 3d7c c23d
000003e0: b535 483d 8b33 843d a50c 183e a042 2b3e
000003f0: 33f6 9abd 5618 473e 2ced 8a3e 6570 963e
-0.11226599 -0.0013534651 0.16262373 0.19310553 -0.79892695 -0.7047688 0.149099 -0.25058633
0.19948421 0.12762198 0.106128775 0.17580947 -0.13518904 0.14339525 -0.031132642 0.090294436
0.09695123 0.14881872 -0.065804124 -0.103985265 -0.055266008 -0.06656333 0.039606985 -0.007263151
0.029849034 0.23718819 -0.083317295 -0.30920765 0.20783857 -0.24388175 -0.52085525 0.07663695
-0.09763904 -0.17362836 -0.055484485 0.004515251 -0.37410012 0.10387245 -0.16329502 -0.32260928
-0.11453805 -0.061589725 -0.12705454 -0.06711334 0.4321986 0.37854373 -0.28729483 0.031964768
0.56095684 0.08890155 0.062583975 -0.06625942 -0.07485483 -0.11184657 0.0449331 -0.08027319
0.1534673 0.012833688 0.18793714 -0.14553997 0.10072018 0.29097244 0.090395905 0.08041999
0.049189106 -0.105082646 0.108353004 -0.02681939 0.1104867 0.09778981 -0.016752327 0.3504915
0.3983987 -0.13077746 0.032427065 0.003829724 -0.0736706 -0.2563319 -0.5996439 0.307413
-0.2253051 0.016565565 0.21515723 0.20502475 0.0060579726 0.12825574 0.10978935 -0.082005925
0.044937573 0.20960565 0.00443869 0.21345651 0.47192308 0.032604545 -0.4771332 -0.68985146
0.027081586 0.14942114 -0.061282642 -0.012881768 0.0011617751 0.06671507 -0.13472643 -0.21471243
0.16069749 0.12658918 0.003666316 -0.12159763 0.003191094 -0.17017977 -0.03551615 0.21143971
-0.061860584 0.19084917 -0.41058344 -0.026620064 0.05907762 -0.08729466 -0.08937241 0.077261455
0.059476305 -0.11058381 0.4737607 0.3452553 0.09487735 -0.6584142 0.037224714 -0.32329094
-0.1739674 -0.16128008 0.03196017 0.15377833 -0.6153735 0.27089244 0.262445 0.014437554
0.17133611 0.19973575 0.0037509298 0.08718364 0.041014027 -0.03187243 0.0002326367 -0.41651493
-0.16552381 0.5984985 -0.2632451 -0.082495585 -0.20321956 -0.028275138 0.16396043 0.18302432
0.07159027 0.097725265 0.033214353 0.050850518 -0.31310776 -0.43231735 0.1478142 -0.19080855
0.69475394 -0.015014645 0.010615227 -0.070226155 0.07707489 0.56115586 0.5425286 -0.50372726
-0.17626847 0.32797998 0.27792218 0.054112248 0.018735902 0.0013925148 -0.016661359 0.024887852
-0.10894008 0.032742564 -0.29236904 -0.09676121 -0.093568586 -0.1782557 0.1414884 0.890742
0.57274586 0.06945855 0.34489685 0.22517504 0.18184882 0.04180262 0.79738146 -0.2799575
-0.39436078 0.09642383 -0.15416272 0.11972507 -0.13582136 0.079980604 -0.11855976 0.125627
-0.00026619132 -0.08551523 -0.24368984 0.055750318 0.41489384 0.29324904 -0.21291009 -0.54426134
-0.1934406 -0.18726216 -0.13001555 -0.3211159 -0.090954505 -0.2725861 -0.41816896 -0.26343438
-0.2132045 0.01467382 0.5471401 0.19779667 -0.3782622 -0.12571165 -0.0476617 0.29060826
-0.0025144636 -0.18915671 0.044091355 -0.1689554 -0.06616286 -0.390382 -0.34662008 -0.1276857
0.06277526 -0.18662694 -0.281833 -0.27064702 -0.31615338 0.05799816 0.6388052 0.07293483
0.072216764 -0.07407618 -0.164456 -0.13637355 -0.023783566 0.014352911 -0.074967265 0.09496353
0.048879344 0.064551435 0.14848574 0.16724634 -0.0756649 0.19442877 0.27134073 0.29382625

SpliceAI.res_layers.0.comboBlock.0.convlayer2.bias f4 [16]
00000000: 6dca 2abd 35b3 ba3d a779 a43d 0f92 c9bd
00000010: 0a20 0c3c 7b29 ea3e e399 83be a7bb 733f
00000020: ed2d 3e3f 398c 803e b049 21bf c7d7 c7bd
00000030: 5ee3 a63e d14a 4bbd 1e20 153e 8062 1ebe
-0.041696955 0.09116212 0.08031016 -0.098423116 0.008552561 0.45734772 -0.25703344 0.9520821
0.7428883 0.2510698 -0.63003063 -0.09757953 0.32595342 -0.049631897 0.14563033 -0.15467262

SpliceAI.res_layers.0.comboBlock.0.bn1.weight f4 [16]
00000000: 80c8 803f e5ce 423f ce5d a53e d4c8 943f
00000010: f13b 563f ceb6 823f f639 3d3f c02c c93f
00000020: 0515 c53f 2a64 da3e 3066 b93f 8625 2a3f
00000030: dfa5 b73f 46b7 983e 7004 7c3f 4115 7f3f
1.0061188 0.76096946 0.3229813 1.1623788 0.83685213 1.0212038 0.73916566 1.5716782
1.539704 0.42654544 1.448431 0.66463506 1.4347495 0.29827327 0.9844427 0.99641806

SpliceAI.res_layers.0.comboBlock.0.bn1.bias f4 [16]
00000000: 8977 29be 2a6d dabe f0be a7be 12f8 22be
00000010: 5b2c 7ebe 27db 44be 29a5 04be 9aca d0bc
00000020: 064c 98be ae38 07bf 3dca b33e ec29 44be
00000030: b8f4 c2bd ee51 c2be c2e5 f9bd 8451 55be
-0.16549505 -0.4266141 -0.3276286 -0.15914944 -0.24821608 -0.19224225 -0.12953629 -0.025487233
-0.297455 -0.5282086 0.35115233 -0.19156617 -0.09519333 -0.37953132 -0.12202026 -0.20831877

SpliceAI.res_layers.0.comboBlock.0.bn1.running_mean f4 [16]
00000000: 54e2 2c3f 7865 21bf 0b9b 1f3f 73a8 12bf
00000010: 6e5a c0be fa09 0dbf 2bbe 1bbf 8ed6 cdbe
00000020: cc7c fbbe 16ab 1c3f 7dbd 18bf 6dd0 1a3f
00000030: 3de3 2abf 0102 3a3f 6eab 113f 2c23 fbbe
0.6753285 -0.63045454 0.6234595 -0.57288283 -0.37568992 -0.5509335 -0.6083705 -0.40202755
-0.4911865 0.61198556 -0.59664136 0.6047428 -0.6675299 0.7265931 0.56902206 -0.49050272

SpliceAI.res_layers.0.comboBlock.0.bn1.running_var f4 [16]
00000000: 93bd 9d3d 8f2a 3b3e 3644 db3c 5425 183e
00000010: baf6 933d 2d8d 0b3e e6e4 2b3e 896a d73e
00000020: 464a c03d 2374 993c be68 383e cba7 ad3d
00000030: 98b6 2c3f 7043 723d 782c 823d 5f80 c93d
0.07702174 0.18277954 0.026765924 0.1485799 0.07224794 0.13628073 0.16786537 0.42073467
0.093891665 0.018732136 0.18008706 0.084792696 0.67466116 0.059146345 0.06356138 0.09838938

SpliceAI.res_layers.0.comboBlock.0.bn2.weight f4 [16]
00000000: 7fbc 123f 4839 193f 90d4 143f ae21 203f
00000010: 0d40 273f 8450 103f ffd8 0c3f bd22 ec3e
00000020: b319 003f 7f2d 193f 4feb 3e3f 329a be3e
00000030: ab38 1b3f c596 f83e 2c90 043f 57aa 493f
0.5731887 0.5985303 0.58136845 0.6255139 0.6533211 0.5637286 0.5501861 0.46120253
0.50039214 0.59835047 0.745778 0.37227017 0.60633343 0.48552528 0.5178249 0.7877554

SpliceAI.res_layers.0.comboBlock.0.bn2.bias f4 [16]
00000000: 2d86 6abe 3bc3 c43d fe8b 0fbe 9cd2 31be
00000010: 2e61 3bbe 516b b7be 6daf d4be bf55 21be
00000020: 3879 19be 061c cb3c 7554 68be 5673 37bd
00000030: 671b afbe f044 a8bd ed5a ce3c f928 1fbc
-0.22902746 0.0960755 -0.14018247 -0.17365497 -0.1829879 -0.35824063 -0.4154009 -0.15755366
-0.14987648 0.024793636 -0.22688468 -0.044787727 -0.34200594 -0.08216274 0.025189841 -0.0097143585

SpliceAI.res_layers.0.comboBlock.0.bn2.running_mean f4 [16]
00000000: 6047 b8bf c65e 433f 33da d43f 9c6d a9bf
00000010: 046f ccbf e471 d1be b971 59be b003 cbbf
00000020: c23c 213e 4129 0b40 2ddb 3f3f 58d7 01c0
00000030: 9de4 633e 8dec 4ebf 7041 05bf 8ef7 68c0
-1.4396782 0.7631649 1.6629089 -1.3236575 -1.5971379 -0.40907204 -0.21234788 -1.58605
0.15745834 2.174393 0.7494381 -2.0287685 0.22255178 -0.808297 -0.52052975 -3.6401095

SpliceAI.res_layers.0.comboBlock.0.bn2.running_var f4 [16]
00000000: 5310 ee41 a333 ed41 d23c 0842 8797 9d41
00000010: e9d3 f841 b873 4241 fc55 3641 f894 c141
00000020: c2f9 c941 c59e c441 6437 cc41 b4b7 0642
00000030: d8b1 7741 16a2 9141 2e2b d141 658b bf41
29.75797 29.650213 34.059395 19.698988 31.103472 12.153252 11.395992 24.197739
25.246952 24.577524 25.527046 33.679398 15.480919 18.204144 26.146084 23.943064

SpliceAI.res_layers.0.comboBlock.1.convlayer1.weight f4 [16, 16, 11]
00000000: 5a5e 023e b9ec 6abd cedb 8a3d e6d9 343e
00000010: b782 3abe 0bca 8e3e 4ace e33d 2ff3 e6be
00000020: e90a c1be 2286 d33d 547c be3e 6a71 3ebe
00000030: 22f8 2fbe aa9f de3e 7336 f8bd c982 f1be
00000040: 0962 393d bbcb 753f 0b6e 223f b535 dcbe
00000050: bcec 8bbe f72c c8be dc42 db3c 4874 c6bd
00000060: 191e a9bc fbb7 863e 58ea 91be 2707 ae3e
00000070: ab9a a23d 70ad c9bd efb0 343d 36fd 893e
00000080: 7ef1 69be 8138 44be 1456 57bc 7b3d 663e
00000090: ade3 733e fc5f 85bd 7d77 323f abda 1d3d
000000a0: 689a 40be a884 fabe e113 40be 6789 f1bd
000000b0: 4fa6 8f3e f99f 0f3c 1c50 003e 7d2d 5b3e
000000c0: 4c3b 78bd 3d31 34be 6a3f b3be 238e ccbe
000000d0: 3e0d 9d3c 1d6d c43f 0a6e 5c3e d3fe 4c3e
000000e0: eb71 b2bc a3a9 31bd 6027 90bc 04bf 7e3e
000000f0: cd5e 1dbe 29a2 8fbe 325b 073f c548 4dbe
00000100: dc9f 2f3e 49c6 debb 9444 a8bd 0c8b eebc
00000110: 6e6c 9dbe 1e68 4bbe 8952 3dbf c2c9 01bf
00000120: fa89 1ebf 1dc8 233c bb67 0e3e 77e1 62be
00000130: 2938 bdbe c3a1 51be 3ded 8dbe fff2 38bc
00000140: 0ee8 f43e b304 a83e a684 393e 22dd 40bf
00000150: 47d7 ecbe 1e62 593e 4387 d93d e5d6 213d
00000160: c93b 46be 57ec 34be c5b5 8d3d 0830 44be
00000170: 31f4 21bf 4dc3 31be 2c47 d63f 3485 4a3d
00000180: 5f0d 06bf 9bc3 893d 92eb 67be 0431 e23d
00000190: 2f48 d43e ec3a 25bc 20ea 0dbf 88eb abbd
000001a0: 243d 4cbf 1cc7 803e d3d4 91bf 9495 88bf
000001b0: 1bae 21be e2eb 15be 77b8 403d 0797 62be
000001c0: a293 64be f70e b13e e3db 993d 5ac3 dfbe
000001d0: 2b0d 973e cb52 2bbf 709a 10be 1b5d a4bd
000001e0: f56c ca3d 0c9c 873d cf97 823e 1983 d43e
000001f0: 0180 53be 41cb e4be 6a73 7abe 9f2c a23e
00000200: 7113 f33e 94ca 973e d193 9ebd 0302 873e
00000210: 0dd4 a4bd c247 03be 1d10 d4bd d70c ee3e
00000220: 357c e43e 7fbe a6bc c1c2 fdbe 1ec1 883c
00000230: 8756 b73d d983 9c3c cfc3 b63e 65c7 10be
00000240: e89d 64be 5d7e 503e 4283 96be cb03 c2be
00000250: d70e 84be 4d62 0c3f 2658 3a3c b026 923f
00000260: 6928 36be 9c13 ee3d a9f5 033e ee60 3a3e
00000270: 54b9 2d3e 7b82 a13d 34a6 cabd 7241 233f
00000280: 4469 35be f5ec ed3d 43c7 fd3c b91f 0d3f
00000290: bfba d7be 9fd4 253e 4e39 c1be 47a0 d73e
000002a0: 027b 993d cb75 9c3e 61db e33c 3bec 243e
000002b0: 5c32 f0bb 92b5 d8be 18b5 8ebe b32a 87bc
000002c0: 08b3 413d 6a8c 18be ed5f b4bd 0119 893d
000002d0: 8eab 86be 07bd f83d a9d5 e4be f968 793f
000002e0: 3355 283f b448 3a3e bd6b 18bf 7300 e83d
000002f0: 748a 53be 80fb 673e 5a5d bc3c 4e7b 513f
00000300: 6867 233e b7e3 dcbe 4f71 e83e 0b4b b9be
00000310: e6e9 a2be 4609 323e 651e abbd 0ed2 f5bd
00000320: cfd2 19be e429 043d f7c8 d53d 8bb6 edbe
00000330: ff1b 3cbe c020 81be 27c2 a7be e4b3 f8be
00000340: fa8d 2abe 4a96 0b3e 6c85 b43d bd87 a13e
00000350: 1ecd 613e 7349 c7be 2833 d63d 522c 43be
00000360: 2b0d 203e b1c4 9fbc 76ca 053e 5038 5a3e
00000370: 8fda e0bd b99f 17be 9b61 1f3d c989 9fbd
00000380: fc29 1d3d dbb0 f53e 96f5 83be 0d17 1ebf
00000390: 3750 0bc0 4a09 babd 1071 6fbe 0ff8 3bbd
000003a0: 6f0e 32bb 1b02 6abd b55c 4abe d1ef a83e
000003b0: 5290 603f 12d6 aabe e731 903e fb40 2bbe
000003c0: 591d da3e 7b48 383d 8b26 b6bd 2065 2bbe
000003d0: 1905 20be dd7e bdbd 5d6b 28bf 016e 19bf
000003e0: 8a01 8dbe 6586 ab3e faca 52be 49cb 7bbe
000003f0: 461a 14be 4ec1 8d3d 421a 803e fbd6 bf3e
0.12731305 -0.057354663 0.06780206 0.17661247 -0.18213926 0.27888522 0.11123331 -0.4510741
-0.37703636 0.10328318 0.3720423 -0.18597952 -0.17184499 0.4348119 -0.1211976 -0.47170094
0.04525951 0.96013993 0.6344916 -0.43009725 -0.27329051 -0.39096805 0.02676528 -0.09690148
-0.020644234 0.2631224 -0.28499103 0.33989832 0.07939657 -0.09847534 0.04411405 0.26950997
-0.22846028 -0.1916218 -0.013143081 0.2248439 0.2381732 -0.06512448 0.69713575 0.038538616
-0.18808901 -0.48929334 -0.18757583 -0.117937855 0.2805657 0.008766168 0.1253056 0.21404071
-0.060603425 -0.17596908 -0.3500932 -0.39952192 0.019171353 1.5345799 0.21526352 0.20019083
-0.021782836 -0.04337467 -0.0175969 0.24877554 -0.15368195 -0.28053406 0.5287353 -0.2004729
0.17150825 -0.00679854 -0.08216205 -0.029119037 -0.30746788 -0.19863936 -0.73954064 -0.50698483
-0.61929286 0.009996441 0.13906758 -0.2215632 -0.3695691 -0.20471863 -0.2772006 -0.0112884035
0.47833294 0.32816085 0.18117008 -0.7533742 -0.46257994 0.21228835 0.10621502 0.03951158
-0.19358744 -0.17668281 0.069194354 -0.19158947 -0.6326323 -0.17359658 1.674047 0.04944344
-0.5236415 0.06726762 -0.22648457 0.11044505 0.41461322 -0.010084849 -0.5543537 -0.083945334
-0.79780793 0.25151908 -1.1393074 -1.0670648 -0.15789072 -0.14640763 0.04705092 -0.22127925
-0.22321942 0.3458173 0.07512643 -0.4370373 0.29502234 -0.6692321 -0.14121413 -0.08025571
0.09884063 0.066215605 0.25506446 0.4150627 -0.20654298 -0.4468632 -0.2445809 0.31674668
0.4747577 0.29646742 -0.077430375 0.26368722 -0.08048258 -0.12820342 -0.10354636 0.4649417
0.44626012 -0.020354507 -0.49562648 0.016693648 0.08952051 0.019105839 0.35696265 -0.14138563
-0.22325861 0.20360704 -0.29397017 -0.3789352 -0.25792572 0.54837495 0.011373555 1.1418056
-0.17788853 0.11624834 0.1288668 0.18201038 0.16965228 0.07886215 -0.09894982 0.63771737
-0.17715937 0.116174616 0.030978804 0.5512653 -0.42134663 0.1619439 -0.37739033 0.4211447
0.07494165 0.3055862 0.027814569 0.1610574 -0.007330222 -0.42326027 -0.2787254 -0.016499853
0.047289878 -0.14897314 -0.08807359 0.06694222 -0.2630276 0.12145429 -0.4469426 0.974258
0.65755004 0.18191797 -0.59539396 0.11328211 -0.20658284 0.22654533 0.022993732 0.81828773
0.15957415 -0.43142483 0.45398948 -0.36190066 -0.31819075 0.1738635 -0.08355407 -0.120029554
-0.15021823 0.032266513 0.104387216 -0.46428332 -0.18370055 -0.252203 -0.32765314 -0.48574746
-0.16655722 0.1363155 0.08814511 0.31548873 0.22050902 -0.38923225 0.10458976 -0.19059876
0.15630023 -0.01950297 0.13065514 0.21310544 -0.10979187 -0.14807023 0.038911443 -0.07789952
0.038370118 0.47986493 -0.25773305 -0.6175392 -2.176771 -0.09083803 -0.23382974 -0.045890864
-0.0027169248 -0.057130914 -0.19761927 0.32995465 0.87720215 -0.33366448 0.28163072 -0.16724007
0.42600515 0.044990998 -0.0889407 -0.16737795 -0.15626945 -0.09252713 -0.65788823 -0.5993348
-0.27540237 0.33500972 -0.20585242 -0.24589266 -0.14463148 0.069216356 0.25020033 0.37468705

SpliceAI.res_layers.0.comboBlock.1.convlayer1.bias f4 [16]
00000000: 8c04 5e3d 8171 7dbe 54b3 a9be 9fd9 86bd
00000010: 9b05 9fbe 9c82 913e f349 8dbe 8f37 fd3d
00000020: 4585 003f a86b a1be b9e0 863e 0aa6 b73c
00000030: 71e2 87be f958 b43e 0687 c03d b5ca 34be
0.054203555 -0.2475033 -0.3314463 -0.06584477 -0.31058964 0.2841996 -0.2759548 0.123641126
0.50203353 -0.31527448 0.26343325 0.02241804 -0.2653995 0.3522413 0.09400754 -0.17655452
